models/lstm_model_full.pth (torch, 831396 bytes, 18 tensors)

weight_ih_l0 f4 [256, 132]
000000 91 be 96 bd 9f bc 88 3d 2a ae 64 bd c1 4f ff 3d
       -0.073605664 0.066766016 -0.05583016 0.12466384
000010 a1 3c ac bd dd bf a4 3d 77 bb c8 3d 55 1e a1 bd
       -0.084100015 0.080444075 0.09801381 -0.078671135
000020 ba d6 33 bd 87 39 25 3d 6d 71 e1 3d 2e 79 3a 3d
       -0.04390595 0.040338065 0.110079624 0.045525722
000030 f4 65 da 3d 99 53 17 be 3a 9c f2 bc 69 b7 a0 3d
       0.10663977 -0.14777984 -0.02961551 0.07847483
000040 58 54 81 bd 66 86 db bd 2f 2c 66 bc 45 1c 5b 3d
       -0.063149154 -0.10718994 -0.01404862 0.053493757
000050 26 f5 ba bd e6 16 0a be 89 02 db 3d f4 ed e8 3d
       -0.091287896 -0.13485298 0.10693843 0.11373511
000060 c8 4c 0b bc 70 f4 13 be 77 8f 08 bc fc 5d 0e 3d
       -0.008502193 -0.14448714 -0.008334986 0.0347576
000070 b6 2f 46 3d b7 5c 24 3d 92 2a b1 bd f0 11 67 bd
       0.048385344 0.040127482 -0.08650698 -0.05641359
000080 ad 4a 87 3d 19 bf 5e 3d c1 ef 10 3c 9e 3e 17 ba
       0.0660604 0.054381464 0.008846224 -0.00057695236
000090 32 3d f3 bd 7d f0 2a 3b bc 49 a0 bc 40 6d de 3d
       -0.118769065 0.0026083284 -0.01956641 0.108606815
0000a0 5f 44 32 bd 38 f1 ee bd a1 1d a4 3d 1c 8a f4 bd
       -0.043522235 -0.116671026 0.08013464 -0.11940405
0000b0 bb c5 81 bd a6 5c ac 3d 87 e2 31 bd 14 45 a2 bd
       -0.06336542 0.08416109 -0.043428924 -0.07923332
0000c0 29 ba eb 3d 9d 1c 88 3d fb d8 b0 bd 2a be a6 3c
       0.115101166 0.066460826 -0.08635136 0.02035435
0000d0 34 cd e6 bc b1 fb 05 3d 2d f5 c4 3d 19 46 d7 bd
       -0.02817402 0.032710735 0.09617076 -0.10511417
0000e0 35 98 ee bd e8 dd 5e 3c af 2c 11 bd d9 79 9f bd
       -0.11650125 0.013602711 -0.035443004 -0.077869125
0000f0 4a 0a 5c bd f6 e5 c8 3d cd 5c 5a 3d ad 40 a4 3d
       -0.05372075 0.098094866 0.053311158 0.080201484
000100 a1 8d fb bd a8 e2 87 3d cb 50 64 3d fe 61 45 3d
       -0.12282873 0.06635028 0.055741113 0.048189156
000110 32 d1 20 3c 48 ce a5 bc aa 3d 7d 3d 97 9a 84 bd
       0.009815501 -0.020239964 0.061826386 -0.06474798
000120 e4 2f ed bd 05 68 b6 3d c8 b9 ea 3d 94 1a 03 3e
       -0.115814 0.08906559 0.11461216 0.12803108
000130 ad 29 b3 3c 77 43 8f bd 08 a4 84 bd 41 dd c3 3d
       0.021870458 -0.0699529 -0.06476599 0.09563685
000140 39 c9 14 3d e4 14 c9 bd b8 bc 84 bd c4 3d 4f bd
       0.036324713 -0.09818438 -0.06481308 -0.050596014
000150 f3 5b dc 3c 07 1e 36 3d 2d d2 22 bc a8 ae 93 3c
       0.026899314 0.04446223 -0.009937805 0.018027619
000160 75 4d 8b 3d c3 37 02 be de 72 11 3e 15 1a c5 bb
       0.06801883 -0.12716584 0.14203975 -0.006015072
000170 52 cb 53 bd 91 ef 44 bb be 6a b0 bd 68 62 dd 3d
       -0.051707573 -0.003005002 -0.086141095 0.10809785
000180 15 8a ac 3c d8 04 84 bd 69 91 45 bd 6a 0d 0f 3d
       0.021061936 -0.06446236 -0.048234377 0.034924902
000190 cf 37 05 be f5 5d dd 3d e5 00 b0 bc f1 ec 12 be
       -0.1300957 0.108089365 -0.021484802 -0.14348198
0001a0 24 86 bb 3d 2e 8f d0 bd c7 21 cb bd 33 29 d6 bd
       0.09156445 -0.10183559 -0.09918552 -0.10457077
0001b0 3d 14 a0 3d 1d c3 63 bd e5 46 94 3d b1 d2 97 3c
       0.0781636 -0.055605996 0.072400846 0.018533083
0001c0 10 44 ee 3d 8d cf 4b bd 73 d3 05 3d 26 fe 06 bd
       0.11634076 -0.049758483 0.032672357 -0.03295722
0001d0 ed b7 58 bd fb 64 87 bd 34 97 e1 3d c1 33 e7 3c
       -0.05290978 -0.06611057 0.11015168 0.02822292
0001e0 c8 37 1b bd 19 e4 ce 3d ad 69 9f 3c c7 44 ae 3d
       -0.037894994 0.101021 0.01945957 0.08509212
0001f0 0e a8 b1 3d a3 e1 38 bd bb 81 67 3d da 45 9c bd
       0.08674632 -0.04513706 0.056520205 -0.07630511
000200 d9 b8 40 3c 11 80 f6 bd da 68 6a 3c 93 cd 1b 3e
       0.011762821 -0.120361455 0.014307225 0.15215139
000210 d0 b9 5c bc 3f 24 78 3d 3b d1 7d bd 98 2e b4 bd
       -0.0134720355 0.060581442 -0.061967116 -0.087979496
000220 7b 30 81 bd 94 6a 00 3d f8 7e 14 3b 7a b1 9e bc
       -0.06308075 0.03135164 0.0022658687 -0.019371737
000230 a7 a8 3e 3d 93 45 e9 bd 29 41 0e 3e ef 6b 9e 3d
       0.04654756 -0.11390223 0.13892044 0.077354304
000240 85 a2 12 be 7f df 40 bc c8 e0 72 bd 9a 4e 68 bb
       -0.14319809 -0.011772036 -0.0592964 -0.003544724
000250 5e 3f 88 bd 3c e2 fa bd 89 21 13 3d a2 d9 de bd
       -0.06652711 -0.12250182 0.035920653 -0.10881354
000260 a2 d3 c3 3c 96 e0 1f be 43 90 72 bd 8f 41 b0 3d
       0.023904625 -0.15613016 -0.05921961 0.08606254
000270 7d d7 b6 bc e2 11 dd bb 13 f6 02 3e a7 8a bf 3d
       -0.02231955 -0.0067465166 0.12789182 0.09352618
000280 c4 35 1c 3c d7 10 0e be 47 06 5a 3d 5a a7 7f 3d
       0.009534303 -0.13873611 0.053228643 0.06241546
000290 d1 b2 62 3b 58 cc 46 bd e7 6a c9 bc 22 6d d9 bb
       0.0034591446 -0.04853472 -0.024587108 -0.006635324
0002a0 52 6e 0c be eb 57 08 be 3d a6 99 bd f4 ef b3 3c
       -0.13713959 -0.13314788 -0.075024106 0.021965005
0002b0 44 8b 87 3d ad e6 54 bd 91 c9 18 3e 20 9c 3c bd
       0.0661836 -0.051977802 0.14920641 -0.04604733
0002c0 c5 2f f2 3b 02 64 0a be fc 09 96 3c e8 a5 f1 bd
       0.0073909485 -0.13514712 0.018315308 -0.11799222
0002d0 da fe 2b bd a1 c3 69 3c c7 f6 c0 3d 72 44 a6 3d
       -0.041991092 0.014267833 0.09422069 0.08118524
0002e0 d2 99 07 be 1f 88 17 3d 9b 43 4a bd 80 0c ee 3b
       -0.13242272 0.03699505 -0.04938088 0.0072646737
0002f0 1a e7 69 bd 9d 8c aa 3d fa 0d 8c bd e3 98 61 3d
       -0.05710516 0.08327601 -0.06838603 0.055077445
000300 40 a3 bd 3d ea 37 1a 3d 1b 37 0e 3e bd 25 a0 3c
       0.09259653 0.03765098 0.13888209 0.019549245
000310 e4 04 0c 3c 98 aa 56 bd da 22 8c 3c a2 5a f7 bd
       0.008546088 -0.052408785 0.017106462 -0.12077834
000320 3c db b9 3d 46 2c 59 ba 32 52 d6 3c 99 c6 e2 bd
       0.09075019 -0.00082844903 0.02616224 -0.11073036
000330 7c b6 36 3c 04 96 b4 bd f4 73 47 bd 70 50 7c bd
       0.011151906 -0.08817676 -0.048694566 -0.06160015
000340 0f 05 3e bd 20 1e 27 3c 05 1e 00 3e 94 f0 08 be
       -0.046391543 0.010200053 0.12511452 -0.13373023
000350 52 b7 8d bd 45 63 3e 3d ed e5 87 3c 81 13 ef 3c
       -0.06919731 0.04648139 0.01658913 0.029184105
000360 03 18 f8 bc e1 71 8c bc cd 0a 03 3e 75 ca 04 3c
       -0.030284887 -0.017144145 0.12797089 0.00810491
000370 6c e1 22 bd 2e 63 c9 3d 7b 96 0b 3e 9f 13 39 3d
       -0.03976576 0.0983337 0.13631622 0.045184728
000380 33 ba dd 3d b6 41 c1 3d ad 55 95 3d 44 1b 09 3d
       0.1082653 0.094363615 0.07291732 0.03347327
000390 c7 67 f3 3d 44 e6 89 3d fe ea 0c 3e 72 c9 ad 3d
       0.11885028 0.06733373 0.13761517 0.08485688
0003a0 46 67 d2 bd c2 e6 8e 3d 83 ab 9b bd 32 01 ad bd
       -0.10273604 0.06977607 -0.07601073 -0.084474936
0003b0 00 44 1d bd ea 3a 43 bd cd 13 e3 3d f5 26 a0 bb
       -0.038394928 -0.047663607 0.11087761 -0.0048874565
0003c0 f7 92 76 3b 03 fc c3 bd 32 0c df bd 4b 72 15 3b
       0.003762422 -0.09569552 -0.10890998 0.002280372
0003d0 bf 0a aa 3d e1 f0 db 3c 40 fd 62 3d 9e d0 04 3c
       0.08302831 0.026848258 0.0554173 0.008106379
0003e0 63 8b 9e bd e4 d4 07 be 76 63 f9 bd d1 22 3d bc
       -0.0774143 -0.13264805 -0.12177174 -0.011543945
0003f0 b2 c5 81 3d c6 94 c1 3c f5 67 b1 bd fd 6c 3c bd
       0.063365355 0.023630511 -0.08662406 -0.046002377

weight_hh_l0 f4 [256, 64]
000000 c1 e4 fd 3c 35 ab aa 3c 79 85 87 3d 83 25 a5 3d
       0.030992867 0.020833591 0.06617255 0.080637954
000010 c0 8f d2 3d b2 4d 01 be ce ad f1 3c 2e aa f8 bd
       0.102813244 -0.12627295 0.029501822 -0.12141834
000020 51 fc 15 3d 2f 85 d8 3c 51 67 87 bd 09 f7 f5 bd
       0.03661758 0.026430694 -0.06611503 -0.12010009
000030 ae c2 bd 3c f2 26 54 3c a7 fe 73 3d c9 b3 0e 3d
       0.02316412 0.012948738 0.059569027 0.034839425
000040 37 01 10 be 51 53 06 be 98 de 04 be c8 11 a6 bc
       -0.14062963 -0.1311772 -0.12975538 -0.02027215
000050 a6 99 05 3d 56 a6 00 3e 58 93 c1 3d b3 ab a8 3c
       0.032617234 0.12563452 0.09451932 0.020589685
000060 bc 67 af bd 87 63 36 3d 5f 3c 19 bd d6 9c a0 3d
       -0.08564708 0.04452851 -0.03741109 0.07842414
000070 16 f6 a4 bd f5 b6 30 bd ab 9c a8 bc 55 16 9d bd
       -0.0805475 -0.04314323 -0.020582518 -0.07670275
000080 85 2f ec 3d 55 3d 8c 3d 16 0d 6c 3d 9a df 66 3d
       0.11532501 0.06847636 0.057629667 0.056365587
000090 b1 77 ba 3c e8 bc 8f bd 90 40 20 3e 8b 21 14 3d
       0.022762151 -0.07018453 0.15649629 0.0361648
0000a0 44 26 94 bd 3f be b0 bd 58 49 4f 3d 13 0d a3 bd
       -0.07233861 -0.086300366 0.050607055 -0.07961478
0000b0 97 86 a4 bc 23 be 5a bd 52 1a 48 3d 22 57 97 3a
       -0.020083709 -0.053403985 0.048853226 0.0011546353
0000c0 6d de 67 bc e1 54 e5 3d 70 ea 37 3c 37 e9 9f bd
       -0.0141521515 0.1119783 0.011225328 -0.07808154
0000d0 5a 8b 79 3d 0f 87 e7 3c 9f 71 22 3e 37 94 da 3d
       0.06092391 0.028262643 0.15863656 0.10672801
0000e0 34 b3 25 bd a7 f6 33 bd 5c 7e 93 bd b3 ac ce 3d
       -0.040454105 -0.043936398 -0.072018355 0.100915335
0000f0 d8 ad 8a bd ef 27 cc bd b1 c7 5a 3c 2d 6d 91 bd
       -0.06771439 -0.09968554 0.013353274 -0.07100902
000100 bf f2 ed bd 73 34 17 3d 84 99 fe 3c 2f a9 b8 3d
       -0.11618566 0.036915254 0.031079061 0.09016644
000110 9a 65 93 3d d1 4e d4 3d e6 ef 5d bc b7 6d 8c bd
       0.07197113 0.103665955 -0.013545966 -0.06856864
000120 03 50 56 3d 70 9b 41 3c 0f 81 08 3d 99 94 bf 3d
       0.0523224 0.011816844 0.033326205 0.09354515
000130 fb 24 a6 3d a9 c1 94 bd 13 78 97 bc ef ea 6b 3d
       0.08112522 -0.072635 -0.018489873 0.057597097
000140 09 37 e7 bd 49 a1 11 be 21 43 47 3b 40 cd c1 bd
       -0.11289794 -0.14221682 0.0030405002 -0.094629765
000150 e0 87 8f 3c 70 0a fd 3c 4f bf 12 be 00 e6 3b 3d
       0.017520845 0.030888766 -0.14330791 0.045873642
000160 d1 c0 c9 3c 98 42 a2 bd 2d 26 15 3e 05 ea 01 bd
       0.024628075 -0.07922858 0.14565344 -0.03171732
000170 56 3a ab 3d a8 e7 cd 3c 98 f7 a3 3d 91 06 dd bd
       0.08360736 0.025134876 0.08006209 -0.10792268
000180 9f 31 11 3d b4 0b a3 bd 96 82 87 3d 7b 3d 4b 3e
       0.035447713 -0.079612166 0.06616704 0.19847672
000190 90 16 6b bb 84 6b d5 bd 55 09 61 3d 70 b0 e8 3d
       -0.0035871603 -0.104208976 0.05494054 0.11361778
0001a0 23 c7 27 3b 76 e0 0b 3e cd 52 05 3d 2e 42 bd bd
       0.0025600872 0.13659844 0.032549668 -0.092411384
0001b0 33 d8 ba bd 62 f1 19 3d ef a7 79 bd fd d4 ce bd
       -0.09123268 0.037583716 -0.06095117 -0.10099218
0001c0 e5 a6 b1 3b 85 fa 15 3e 12 73 28 bd 34 46 14 3e
       0.0054215067 0.14646347 -0.041125365 0.14479905
0001d0 82 f3 8f 3d 98 37 56 3d 29 39 4e bc 62 fd 5d 3d
       0.07028867 0.052299112 -0.01258687 0.054196723
0001e0 10 b0 13 be ba 0d 2c bc 69 4e 79 bd d4 ca 93 bd
       -0.14422631 -0.01050132 -0.060865793 -0.07216421
0001f0 6b 56 ce bc 0a 7f 5a 3d bc 99 53 b9 5c b3 93 bc
       -0.025187692 0.05334381 -0.00020179799 -0.018029861
000200 32 fe 13 3c d2 7e 30 bc c5 28 15 bd 4c a2 f2 bc
       0.009032773 -0.010772424 -0.036415834 -0.029618405
000210 02 e0 a3 bd 46 f3 a9 3d 1f 7b d5 3c fa 32 c7 bd
       -0.080017105 0.08298354 0.026059685 -0.0972652
000220 c1 6e bb 3d 80 54 b8 bc 4c 27 2e bd 3f 02 a3 3d
       0.09151984 -0.02250123 -0.042517945 0.07959413
000230 67 3f 25 3c 14 50 32 bd aa e4 9a 3c 24 b3 32 3d
       0.010085917 -0.0435334 0.018907864 0.043627873
000240 ad 63 ac 3d 09 f6 47 bd 37 3e 74 3c 6f b1 a8 bd
       0.08417449 -0.04881862 0.014907411 -0.08236968
000250 08 2a 81 3d 3b 87 05 3e 58 8e ce bd c0 44 a6 3d
       0.06306845 0.13039868 -0.10085744 0.08118582
000260 c9 b6 09 3e 9e 8e 16 bd b1 8e 10 3e f8 eb ef 3d
       0.13448633 -0.036757104 0.14116932 0.11714929
000270 08 c7 20 bc a8 44 03 be 68 5b 55 bd 7b b6 94 bc
       -0.009813078 -0.12819159 -0.052089125 -0.01815342
000280 bb 80 3e bd 17 48 84 3b 5c e4 bc 3d be 80 ac 3c
       -0.046509486 0.004036914 0.092232436 0.021057483
000290 08 40 86 bd 19 dd 41 bd de 9f 00 bd 4c ff 36 bd
       -0.06555182 -0.047329996 -0.03140246 -0.044677064
0002a0 e6 9f d5 3d 70 58 9b bc d3 2d e1 3d 58 a1 b3 3d
       0.10430889 -0.018963069 0.109950684 0.08771008
0002b0 ed fc e5 3c 81 81 e2 3d 38 3f 0b bd 23 00 e2 bd
       0.028074706 0.11059857 -0.033995837 -0.11035182
0002c0 1c f8 e6 bd db 7c a7 3b b7 80 bd bd 46 6e ad bd
       -0.11277792 0.0051113195 -0.09253066 -0.084682986
0002d0 ef 06 c5 bc eb 4c 8c 3d 85 1c 54 3d 41 98 ed bd
       -0.024051158 0.068506084 0.05178501 -0.11601306
0002e0 6f eb 72 3d 7b 41 bd 3d 97 40 ce bd 64 d7 99 3d
       0.05930656 0.09241005 -0.10070913 0.075117856
0002f0 91 15 a2 bd f3 9e c4 3d 7b 05 1f 3d b9 e2 a4 bd
       -0.0791427 0.0960063 0.038823586 -0.080510564
000300 e7 80 cb 3d e8 b4 a1 3c 9d 78 83 3d c7 dd dc 3d
       0.099366955 0.019739583 0.064194895 0.10784488
000310 4b 9f 02 3e 28 1d f5 bd 4d 90 6e 3d 96 ec 52 bd
       0.12756078 -0.11968452 0.058243085 -0.051495157
000320 18 ce c7 bd 78 c2 77 bd 5c c2 b5 bd d2 d0 b3 bc
       -0.09756106 -0.060488194 -0.08874962 -0.02195016
000330 a6 92 ff 3c 0a 81 92 bd 30 03 b0 3d 13 04 b2 3c
       0.031197857 -0.071535185 0.08594358 0.021730458
000340 7c 05 b4 3d b0 be cd bd 1b 94 3d bd e3 54 78 bd
       0.087901086 -0.100461364 -0.046283823 -0.06062783
000350 a4 f5 1c 3d b9 0b 7b 3e 75 2b ba bd ca e3 b3 bc
       0.0383202 0.2451619 -0.0909032 -0.021959204
000360 49 1d 6c 3d 1d 04 4a bd e6 62 a8 bd a7 23 ac bd
       0.057645116 -0.04932033 -0.082219884 -0.08405238
000370 f7 c2 58 3d 5f 2d e9 bd bc 25 5e bd 29 bc 83 3d
       0.052920308 -0.11385607 -0.054235205 0.06432373
000380 8a 4a 36 bd 26 8b 88 3d 08 a8 91 3c 4e ec cc 3c
       -0.04450468 0.066671655 0.017780319 0.025015023
000390 71 dc d2 3d af c8 41 bc e4 24 41 3d b4 d2 d8 3d
       0.10295952 -0.011827632 0.047154322 0.105870634
0003a0 01 be cd bb 2c 76 a7 3d b6 7a 89 3d 69 22 bd 3d
       -0.0062787537 0.08176836 0.067128584 0.09235079
0003b0 39 72 be bd 67 4a 76 bc 02 94 de bd 24 77 45 ba
       -0.0929913 -0.015032387 -0.10868074 -0.0007532707
0003c0 ea dc da bd 42 4c 4f bd d3 f7 d8 3c 1a eb 9a bd
       -0.10686667 -0.050609834 0.02648536 -0.07564373
0003d0 0a fb c2 3d 9e 6a 43 bd 07 5b ed 3b df b8 b3 bd
       0.09520538 -0.0477091 0.0072435173 -0.08775496
0003e0 dc 4a db 3d 46 1f a8 3c 6b b3 1b bd 07 98 cd 3d
       0.10707638 0.020522725 -0.038012903 0.100387625
0003f0 90 63 cd bd e2 65 03 3d bb b5 b9 bc 6c 03 a3 bd
       -0.10028756 0.032079585 -0.022669664 -0.07959637

bias_ih_l0 f4 [256]
000000 93 d0 f9 bc 78 69 a5 bd 11 65 89 bd 71 0f 55 bd
       -0.030494964 -0.08076757 -0.0670873 -0.05201668
000010 46 1e ed bc 97 dd 9b 3d 06 5d 14 3c f7 22 96 bd
       -0.0289451 0.07610624 0.009055382 -0.07330888
000020 61 61 14 3d 74 e9 27 3d 0e 1e 2c 3d 5a ec 10 3e
       0.03622568 0.040994123 0.04202085 0.14152661
000030 93 bf 21 3d 3d 48 4f 3d e1 03 e9 bd 0c 03 9a 3d
       0.03948934 0.050606 -0.11377693 0.075201124
000040 66 3e e3 bd 9b 22 0f 3c a1 4d f4 bd c7 8c 9c 3c
       -0.11095886 0.008736278 -0.11928869 0.019110097
000050 8b c6 72 3d f4 bc b9 bc ec 18 b4 3c dd f1 4c bb
       0.059271377 -0.022673108 0.02198454 -0.0031272091
000060 4e 80 6a 3d bb 85 94 3d 4d df a7 3d cb 26 c0 3d
       0.057251267 0.072520696 0.08196888 0.09382399
000070 bd c1 be 3d 2f cb ae bd 84 94 ec bc 62 e1 33 3d
       0.093142964 -0.08534848 -0.028879412 0.043916114
000080 b4 f0 69 3c 34 39 c3 bd a1 f1 a8 bb bd 37 16 3d
       0.0142785795 -0.09532395 -0.0051557575 0.03667425
000090 c8 fb c6 bd 3c 05 de bd 2b 52 1a 3e 0e 8f 82 bd
       -0.09715992 -0.10840842 0.15070407 -0.06374942
0000a0 a7 25 78 bd 2d 47 bf bd 6b 2d d9 bd cf 8d ba 3c
       -0.060582783 -0.093397476 -0.10604366 0.022772698
0000b0 00 1f 7a 3c 53 49 70 3b e1 bc 63 bd 04 2a dd 3d
       0.01526618 0.0036664798 -0.05560005 0.107990295
0000c0 74 f4 cb 3d d0 7b e5 bd d9 cd 7b bd d7 3e d2 bd
       0.09958735 -0.11205256 -0.06147561 -0.10265892
0000d0 ad d8 a6 ba 1b b7 e4 3d 2c 85 3d 3d 19 a5 74 bd
       -0.0012729369 0.11167737 0.04626958 -0.059727762
0000e0 2f e0 af 3c 00 74 3d bd 31 68 5d bc ea 1e c7 3d
       0.021469204 -0.046253204 -0.013513611 0.09722693
0000f0 01 7d f6 bd d2 67 c7 3d 9d 4c 0f bb fb 65 cc 3d
       -0.12035561 0.09736599 -0.0021865733 0.09980389
000100 2d 7c fd 3d c5 b5 c1 3d 95 69 d0 bd ed 23 63 3d
       0.123772 0.09458498 -0.10176388 0.055454183
000110 bc 57 43 bc 05 7f f0 3c db 2e 2d bd 1e 52 de 3c
       -0.011922773 0.029357443 -0.042281013 0.027138766
000120 9a 70 9e bd 09 6e f0 bb 94 d8 e5 bd 09 0c 02 3e
       -0.07736321 -0.007337336 -0.112229496 0.12699904
000130 e5 94 90 3d 35 ea bf bc ed 28 cc bd 51 d3 2e 3b
       0.070596494 -0.023427108 -0.099687435 0.0026676247
000140 57 5f 94 3d e1 1b a2 3d 1f 2e 3f 3d 72 1b c2 3c
       0.07244747 0.07915474 0.046674844 0.023694728
000150 42 30 07 3d 89 f4 c8 3d 25 34 8c bb a5 93 21 3d
       0.033005007 0.098122664 -0.004278677 0.039447445
000160 67 69 09 3e f3 6d 7c bd e7 ae 5b 3b e8 d0 02 3d
       0.13419114 -0.061628293 0.0033520998 0.03193751
000170 90 e8 d9 3d ad 13 c1 3d d9 5f d3 3d cb 14 e3 3d
       0.10640061 0.09427581 0.10321016 0.1108795
000180 48 ab 81 3c 57 9c 77 bc c0 8e 8c bd 8f d4 4d bc
       0.015828744 -0.015112958 -0.06863165 -0.012562885
000190 2e 78 b3 bd 0d b3 53 3d 5a c7 dc bd dd ab a2 3d
       -0.08763157 0.051684428 -0.10780211 0.079429366
0001a0 b8 99 94 3d 4f 61 c8 3d 54 99 00 3e 85 89 9a bc
       0.07255882 0.09784185 0.1255849 -0.018864403
0001b0 a6 37 fb 3d ff 3e ef bd 93 c9 ed bd eb 52 43 bd
       0.122664735 -0.116819374 -0.11610713 -0.0476865
0001c0 a5 18 fa 3d 7c 2b fb 3d d6 df 16 3d 78 ac 98 3d
       0.12211732 0.12264153 0.03683456 0.07454771
0001d0 8f 60 0a bd 4f 21 3a bd 63 7d 4e bd 2b 7d 80 bd
       -0.03378349 -0.04544192 -0.050412547 -0.06273874
0001e0 54 6d 96 bc ff d4 92 bd c7 cf 00 3e dd dd 05 be
       -0.018362679 -0.07169532 0.12579261 -0.13072915
0001f0 60 90 df 3d 89 f8 ba 3c 12 42 6b 3c 65 ba dc 3d
       0.10916209 0.022823589 0.014359014 0.107777394
000200 91 ac 89 bd 3e e1 7d bb e7 6c ea bd 17 f0 fc 3c
       -0.067223676 -0.003873899 -0.11446553 0.030876203
000210 36 d9 49 bc 7e b0 1a bd 36 5b e9 3d a9 b1 10 3e
       -0.0123198535 -0.037765972 0.1139435 0.14130272
000220 29 bc 36 bb 52 bc 2d 3d 48 75 bb 3d b9 4d 2a be
       -0.0027883148 0.042415924 0.09153229 -0.16631211
000230 d4 6d d4 bd f9 b6 2e bd 0f f9 2e 3d c0 c5 96 3c
       -0.103725106 -0.042654965 0.04271799 0.018404841
000240 01 71 c7 3d 23 09 03 3e 72 f3 f0 3b 9e 68 03 3d
       0.09738351 0.12796454 0.0073532397 0.032082193
000250 36 da 73 3d 99 f5 e7 3d 83 01 4a 3e 21 3d 98 bd
       0.059534274 0.11326141 0.19727139 -0.074335344
000260 5a 3c 61 3d ed dc 57 bc af cc cd 3d f0 2f 0a 3e
       0.054989196 -0.013175231 0.10048806 0.13494849
000270 e3 b0 24 be 70 4c a4 3d 5d 0b df bd 55 f4 cf bd
       -0.16083102 0.08022392 -0.10890839 -0.101540245
000280 3b d1 bf bd a7 89 d6 3d 27 b1 b4 bd 59 65 10 3e
       -0.093660794 0.10475474 -0.08822852 0.14101161
000290 82 41 83 bd e0 25 cd bd 36 93 70 bb 6a b6 ad bb
       -0.06408979 -0.1001699 -0.0036708838 -0.0053012865
0002a0 63 a5 cf bd 01 21 45 bc f0 12 e0 bd 1b 04 21 3c
       -0.10138967 -0.0120317945 -0.10941112 0.009827639
0002b0 4e 88 02 be c7 e5 22 3d cb d8 f6 3d 82 8d 31 3d
       -0.12747309 0.039769914 0.12053069 0.043347843
0002c0 f1 0e 38 bc 0e e2 c5 3d df 83 11 3c 2b 89 7e bd
       -0.011234031 0.09662257 0.008881538 -0.062142532
0002d0 f6 f5 1e 3e 8b 70 11 be 41 06 da 3d bc 9e ba bd
       0.15523514 -0.14203088 0.10645724 -0.091123074
0002e0 71 2e 03 bc f8 c9 a4 ba 3d 79 9e bd 51 7d 9e bd
       -0.008006678 -0.0012572398 -0.07737968 -0.07738746
0002f0 47 60 40 3d 56 a5 bd 3b 7e 52 65 3d 1f e8 ff 3d
       0.046966817 0.005787532 0.055986874 0.124954455
000300 31 b6 c2 3c 01 4a b7 3c 0c 20 97 3d 0f e9 89 3d
       0.023768516 0.022374155 0.07379159 0.067339055
000310 54 b8 99 bd 63 8c a2 bd d5 91 cc bb 88 1a 89 bd
       -0.07505861 -0.07936933 -0.0062429705 -0.066945136
000320 1c bb dd 3d 1a 35 3b 3d cd 38 a0 bd 3b ae d0 bd
       0.10826704 0.04570494 -0.07823334 -0.10189482
000330 cb 25 c1 3d 5a b2 4e bd 59 4a 87 bc 56 85 16 39
       0.094310366 -0.050463058 -0.016514944 0.00014354786
000340 ad 0f 59 3d d6 ee 1b bd a3 42 54 bd ac 8a 93 bc
       0.052993465 -0.03806957 -0.051821362 -0.01801046
000350 1e 6c 68 bd 62 d9 ee 3d 97 aa 03 3e 2b 89 c3 bd
       -0.056743734 0.11662556 0.12858044 -0.09547647
000360 47 70 9d 39 04 01 ea bc 2d 3d f2 3c 76 80 a4 3c
       0.00030029027 -0.028564937 0.029570187 0.020080786
000370 ac 0e 85 3d a8 2e 18 bb 4e 77 1b bb 0a cb 12 bc
       0.06496939 -0.0023221169 -0.0023722234 -0.008959541
000380 22 97 90 bd d9 4b 8c bd 16 81 68 bd 49 6c db 3d
       -0.07060076 -0.06850404 -0.05676373 0.10714013
000390 26 c6 e5 bd 39 c6 da bd 82 88 85 bc 95 c2 32 bd
       -0.112194344 -0.10682339 -0.016300444 -0.0436426
0003a0 ae 09 8b bd 39 3e 56 bb 51 6f c6 bd cc 68 9d bd
       -0.06788956 -0.0032690896 -0.09689201 -0.07686004
0003b0 e5 5d 09 3c 8f 9a 20 3d 90 ec e4 bd fa f7 32 3d
       0.008384203 0.0392099 -0.11177933 0.04369352
0003c0 70 60 a4 3d 28 03 b3 bc a1 60 e0 bc f4 4d 9c 3d
       0.080262065 -0.021852091 -0.027389826 0.07632056
0003d0 41 ed 57 3d 1c ff d6 bd 3e 4a f6 3c 28 a0 cb bd
       0.052716497 -0.10497877 0.030064698 -0.09942657
0003e0 1e 95 c8 bd 60 5a ae 3c ae af 30 bd 55 d9 04 be
       -0.09794067 0.021283329 -0.04313629 -0.1297353
0003f0 41 c3 dc 3c 76 f4 d7 3d 4b 76 e5 3d bb ca da 3d
       0.026948573 0.10544674 0.11204203 0.10683199

bias_hh_l0 f4 [256]
000000 cd 11 1b bd 16 4e 73 3d 61 ae b4 bc de 85 41 bd
       -0.037858773 0.05940064 -0.022055807 -0.047246806
000010 5b 82 8a 3d 8f 71 c7 bd a8 45 15 3e 9b 5c 03 3e
       0.067631446 -0.097384565 0.14577353 0.12828295
000020 54 c3 9a 3d 74 0d ff bd 01 45 11 3e be 8d c8 3d
       0.07556787 -0.12453738 0.14186479 0.0979266
000030 7e 29 fa bd e3 5b 58 bd 6c cc d3 bc 3c 64 c9 3d
       -0.12214945 -0.052822005 -0.025854312 0.09833571
000040 33 38 0b 3e 58 59 03 3e fe 16 de bb fc d3 1b 3d
       0.13595657 0.1282705 -0.006777643 0.03804396
000050 96 3c 94 3d 45 8a 98 3d 74 46 24 3c 46 75 c7 3d
       0.07238118 0.07448248 0.010026563 0.09739165
000060 4a 71 8c 3d d5 74 97 3c fe 35 ea 3b 77 5b 8f bd
       0.06857546 0.018488327 0.0071475497 -0.069998674
000070 af 70 dc bd bf b6 72 bc 4e 61 33 bd 7e 8d 19 3e
       -0.1076368 -0.014814078 -0.04379397 0.14995381
000080 d8 73 92 bd f0 f2 91 bd 20 c6 32 bd 40 c1 eb bd
       -0.07151002 -0.07126415 -0.043645978 -0.11511469
000090 20 68 34 bd 33 57 94 bd 7f 71 91 3d a3 3d 38 bc
       -0.044044614 -0.072431944 0.07101726 -0.011245164
0000a0 e3 c0 a4 3d 0f c8 a5 3d 43 2d f6 3d 8f 16 92 3c
       0.08044603 0.08094799 0.12020352 0.017833022
0000b0 0c 34 a8 bd fc 87 47 3d 57 24 ab bd 82 61 c3 bd
       -0.08213052 0.04871367 -0.08356541 -0.095400825
0000c0 7d 51 d8 ba f6 bd c9 3d bd 5b 07 bd e8 18 19 3d
       -0.0016503778 0.09850685 -0.033046473 0.037377268
0000d0 86 95 ac 3c b9 ef 8f 3d 79 8a 24 3e c4 6e 96 3b
       0.021067392 0.07028145 0.16068448 0.004590841
0000e0 3e 8e b2 3d 7a 91 81 3d 84 1a be 3d 93 28 53 bd
       0.08718537 0.063265756 0.09282401 -0.051552366
0000f0 53 3d b5 3d be df 9f bd 5d 53 f2 3d 5a 91 47 3d
       0.08849587 -0.07806347 0.118323065 0.048722602
000100 b3 33 02 3e ec f2 0e 3d 7e 58 fe bb 0d 74 d2 bd
       0.12715034 0.034899637 -0.007762014 -0.10276041
000110 bb f8 bf 3d 20 24 72 bd 74 c1 18 3e ca 75 88 3d
       0.093736134 -0.059116483 0.14917547 0.066630915
000120 38 d7 a4 3d 64 81 ed bc 86 bd aa bd 4c 96 24 3d
       0.08048862 -0.028992362 -0.0833693 0.040182397
000130 12 98 0f bd 74 b5 26 3d 48 e4 0a bd a3 a0 76 bd
       -0.035057135 0.04070039 -0.033909112 -0.06021179
000140 5f 7b de 3d 0b b8 bb 3d 6f 41 97 bd f9 c0 62 3c
       0.10863375 0.09165963 -0.07385527 0.013839954
000150 72 ae d3 bd 5c aa 47 3e 83 32 4c 3d 94 20 c8 3c
       -0.10336007 0.1949858 0.04985286 0.024429597
000160 3d b7 04 bd 3f 3c 0b 3e 3d 8d 0c 3e 8a dd f7 3c
       -0.032401312 0.13597201 0.13725753 0.030257005
000170 f1 79 77 3d a5 9e e9 bd c7 a9 a5 3d d1 a3 8f bd
       0.060419027 -0.11407212 0.08089023 -0.070136674
000180 fa 6d bd 3d ce a7 6d 3d 32 b4 c7 bb 60 f0 c0 3c
       0.09249492 0.05802136 -0.006094479 0.02355212
000190 e9 92 8a 3d 2d 70 8f bd e3 05 4f bd bc 8b 3b 3d
       0.06766302 -0.07003818 -0.050542723 0.045787558
0001a0 8d 24 04 be e6 86 8f bd 1d b9 c5 bd 3b 30 18 3e
       -0.12904568 -0.07008152 -0.09654448 0.14862148
0001b0 f5 ef 10 3e 14 df 22 3d c6 5f 67 3d 25 bd 85 ba
       0.14154036 0.039763525 0.05648782 -0.0010203464
0001c0 55 09 fd 3c b8 9d c3 3d d8 00 03 3d cc f6 d6 bd
       0.030888239 0.09551567 0.031983227 -0.104962915
0001d0 f5 37 65 3d d8 41 17 3e 63 9b 85 bd 9f 71 8f bc
       0.055961568 0.14771211 -0.06523778 -0.017510233
0001e0 77 0e ff 3d 0d a3 03 3e 5f 8a 9c 3d be 40 77 3d
       0.12453931 0.12855168 0.0764358 0.060364477
0001f0 73 f0 c9 bd 44 d4 43 3e a8 95 d0 3d db 9c 91 3d
       -0.09860315 0.19123942 0.10184795 0.07109996
000200 23 1a 5d bc b8 59 8f bc 8f f7 88 bd 37 25 c9 3c
       -0.013495001 -0.017498836 -0.06687843 0.024553878
000210 6f 79 6d bd 48 49 a3 3d 7c 9b cf 3d a3 3a 1a 3e
       -0.057977136 0.07972962 0.10137078 0.1506143
000220 1f d3 0c 3e f1 ce a4 bd 7c ca 18 bd ca a3 c9 3c
       0.13752411 -0.080472834 -0.03730248 0.024614234
000230 22 65 d3 3d 4e a0 c3 bd ec 9b a7 3c 85 a4 54 bd
       0.10322024 -0.0955206 0.020460092 -0.05191471
000240 e7 91 c5 3d fd 13 48 bb db f4 95 bd e2 83 c4 bd
       0.09646969 -0.0030529492 -0.07322093 -0.09595467
000250 4b 3f 51 3d c0 ac 9e 3d df 79 f9 3c 6c 67 20 bb
       0.05108575 0.07747793 0.03045362 -0.0024475707
000260 08 c7 a6 bd bf da 3d bd 24 d0 33 3c af 58 0f 3e
       -0.08143431 -0.04635119 0.010974918 0.13998674
000270 2d 34 05 bd 30 20 94 3d d3 f4 de bd f5 da a7 bd
       -0.03252046 0.07232702 -0.1088654 -0.081960596
000280 b9 41 70 3d 5c e8 05 3d 45 fb 08 3c cf fe e6 bc
       0.058656428 0.0326923 0.008360689 -0.028197674
000290 a4 09 12 bd f6 61 ed 3d 01 7d f9 3d 11 90 84 bd
       -0.035653725 0.1159095 0.12182046 -0.06472791
0002a0 01 1c e6 3d f7 6b 9c bd a3 ea 7d bc a0 68 3e 3e
       0.1123581 -0.0763778 -0.015497836 0.18594599
0002b0 c5 b3 02 be eb 74 c6 bd 75 5f d6 bd 18 03 30 3d
       -0.12763889 -0.09690269 -0.10467426 0.0429717
0002c0 e0 2a 7a 3b b8 47 e8 3a 96 6d ad bd da f4 f4 3d
       0.0038172528 0.0017721569 -0.084681675 0.11960764
0002d0 09 26 92 3d ba 9f 37 be 2f f2 a9 3d 33 9b a6 3b
       0.07136161 -0.17932025 0.08298146 0.005084419
0002e0 de 4d f7 3d 1e 85 f3 bd ec 1e 14 3d b9 2d 4b 3d
       0.12075399 -0.118906245 0.036162302 0.04960415
0002f0 7b 4f 37 bd 69 ff af bd 16 56 56 bd 8b 5f 6d 3d
       -0.044753533 -0.085936375 -0.05232819 0.057952445
000300 55 cd a0 bc 3f 34 09 be b3 00 20 bd a6 bb f7 bd
       -0.01962916 -0.13398837 -0.039063167 -0.12096338
000310 88 b6 4d 3d 93 84 8f 3d a5 fd e3 3c 76 4a ee bd
       0.050222903 0.070077084 0.027830908 -0.11635296
000320 b6 6c a0 3d 4e d3 9a 3d b3 64 83 3b c3 e7 ab 3d
       0.07833235 0.075598344 0.004009807 0.083938144
000330 e4 d3 ce bc 41 7c af bd 2c f2 66 bd c2 b2 d7 bd
       -0.025247522 -0.085686214 -0.056383297 -0.10532142
000340 b3 a3 5e 3b 86 89 a7 bc 77 39 1e 3e 2f a8 c7 3d
       0.0033972084 -0.020451318 0.15451609 0.09748875
000350 dd e8 f0 bd 97 eb 47 3d 8c c2 c4 bc d2 d5 19 3d
       -0.11763165 0.04880866 -0.024018548 0.03755743
000360 94 de e9 3d 50 fa dc bd 9a c2 fa 3d d9 70 fd 3d
       0.114194065 -0.10789931 0.122441486 0.123750396
000370 34 bf 84 3d 80 37 41 3d 57 6b 17 bd c9 13 a9 bc
       0.064817816 0.04717207 -0.0369676 -0.020639317
000380 3e 48 e1 bd d4 d5 8a 3b 1a 29 0e bd 75 a5 17 3d
       -0.11000107 0.004236916 -0.034707166 0.037023026
000390 d6 3b c5 3d 34 0d 7b 3d 19 8f 35 3c a3 5f ae bd
       0.096305534 0.06129189 0.01108148 -0.08514335
0003a0 fd cf fa bd f5 2c cc bd 16 0d 2c 3d 6c e7 ce 3d
       -0.12246702 -0.099695124 0.042004667 0.10102734
0003b0 f5 85 91 3d d0 9b 65 3d aa 6c b5 bd c2 18 b5 bc
       0.071056284 0.056056798 -0.08858617 -0.022106532
0003c0 a3 98 dc 3d ae f5 97 3b 1c e8 09 be 1c de 43 bd
       0.10771301 0.0046374416 -0.13467449 -0.047819242
0003d0 4d 14 70 3d 42 42 53 3d f4 94 84 bd 3a 6a e6 3c
       0.05861311 0.05157686 -0.06473723 0.028126825
0003e0 50 5b 93 bd 5e 4c 53 3d 03 e4 74 bd 46 d1 d2 bd
       -0.07195151 0.0515865 -0.05978776 -0.10293822
0003f0 b5 05 af bd 98 32 29 bb a9 dc 90 bc c2 a7 83 bd
       -0.085460104 -0.002581751 -0.017683344 -0.06428482

weight_ih_l0 f4 [512, 64]
000000 7c 01 57 bd 5c 94 57 bd cc 5f 98 3d a2 b3 ff 3c
       -0.05249165 -0.05263172 0.07440147 0.031213585
000010 29 9a 38 ba ee 24 6e 3d a4 00 98 3c 44 28 8f 3d
       -0.00070420146 0.058140688 0.018554993 0.06990102
000020 84 89 87 bc 61 5a 59 3d 22 2e 88 bc 05 30 af bd
       -0.016545065 0.053064708 -0.01662356 -0.08554081
000030 38 75 a8 bd 00 f1 ae 3d 7b 1f 95 3d f6 49 31 bd
       -0.08225483 0.08542061 0.07281395 -0.043283425
000040 b1 b1 f6 bd f8 53 a4 3d 3b f4 74 bd a4 80 ad bc
       -0.12045611 0.08023828 -0.05980323 -0.021179505
000050 46 41 a7 bd 67 04 40 3e c4 0d 96 3c 5e 83 3e bd
       -0.08166747 0.1875168 0.01831711 -0.046512
000060 d9 cc 2a 3c fb 0d 7e bd c6 70 b6 bd c5 f0 ae 3d
       0.010424816 -0.06202505 -0.089082286 0.08542017
000070 52 32 8b 3d 2a e6 67 bd 86 4c b3 3c 72 ee ed bc
       0.06796707 -0.056615986 0.021887075 -0.029044364
000080 bb c6 07 3d 4b de 82 3d 65 93 8b 3d ef 81 6a 3d
       0.03314851 0.06390055 0.06815223 0.05725282
000090 96 13 cb 3c 9e 56 c5 bd a5 28 f6 3c 0a 0f e5 bc
       0.024789613 -0.096356615 0.030048678 -0.027961273
0000a0 74 3b 28 3d b2 34 9f 3d 9f 7c ec bc 7d b3 48 3d
       0.041072324 0.07773723 -0.028868018 0.0489993
0000b0 23 44 1d 3d c3 c4 a7 3d da aa 25 bd 99 92 3c bc
       0.03839506 0.08191826 -0.04044614 -0.011509561
0000c0 92 48 b9 bd 91 d2 c7 bd 6f e5 ba 3c 1d b1 1f bd
       -0.09047045 -0.09756959 0.02281448 -0.038987268
0000d0 02 16 9d 3c 10 7f 88 3d f2 0c 06 bd 88 bc 99 bd
       0.019175533 0.0666486 -0.03272719 -0.075066626
0000e0 82 b7 35 3d 5c a9 e9 bc eb 81 7b bb ac b3 a7 bd
       0.04436446 -0.02852314 -0.0038376998 -0.081885666
0000f0 af df 58 3c 8c 09 8e bd 5d 22 18 3d d7 14 8d 3d
       0.013236924 -0.06935415 0.037142146 0.068887405
000100 00 c8 13 3d 29 44 d4 bc 8a ac ad bd e1 a4 49 bb
       0.036079407 -0.025911408 -0.08480175 -0.0030768442
000110 11 26 44 bd 65 88 95 bc b2 89 47 3c 77 b3 f0 3b
       -0.047887865 -0.018253515 0.012178825 0.0073456126
000120 4c 94 8f bd a5 96 9e bd b2 c6 00 3e 6f 5e c5 3b
       -0.07010707 -0.07743577 0.12575796 0.0060232203
000130 3b 67 97 bd 6e 89 8c 3c 97 89 94 3d bf b3 44 3d
       -0.073927365 0.017155375 0.07252806 0.04802298
000140 76 14 d5 3c e6 15 c5 3c 55 02 d8 bd 33 70 37 bd
       0.026010733 0.024058294 -0.1054732 -0.044784736
000150 96 74 92 bc f0 24 c0 bc 8b df 90 3d c4 81 0b 3c
       -0.017877858 -0.023455113 0.070738874 0.008514825
000160 25 d4 4f 3d 06 12 76 bd 93 65 0b 3c 88 ed 8e bd
       0.050739426 -0.060075782 0.008508104 -0.06978899
000170 66 53 40 3d 5d 2f ff bd 1f a8 9c 3d a1 3b a7 bd
       0.046954535 -0.12460206 0.07649254 -0.0816567
000180 e6 06 1e 3d 8a 01 a7 3d 79 af 8f bd 54 d5 d4 3d
       0.038580798 0.081545904 -0.07015891 0.103922516
000190 19 49 8c bd c8 60 03 3d 82 3e 93 bd 25 42 5b bd
       -0.0684988 0.03207472 -0.07189657 -0.053529877
0001a0 99 a7 a2 bd d0 50 8c bc 7e e5 94 3d 70 55 1c 3d
       -0.07942123 -0.017128378 0.07270335 0.038167417
0001b0 00 57 ab bd 98 ea 82 3c 15 87 65 3d 47 4a 7f 3d
       -0.08366203 0.015981004 0.056037027 0.062326696
0001c0 54 73 9f bd 3f 5c 58 3c 15 88 6f 3d fc a9 7f 39
       -0.07785669 0.013205587 0.058479387 0.00024382019
0001d0 21 56 47 bd 43 e7 e1 bb e1 25 9f 3d bb 7b 41 3d
       -0.048666123 -0.0068940236 0.07770897 0.04723714
0001e0 20 b1 4f bd c4 25 c2 bd f9 b0 a6 bc af cc 17 3d
       -0.05070603 -0.094798595 -0.020348059 0.037060436
0001f0 e6 2b 33 bd 26 b8 0e bd 09 0b 67 3d 42 56 11 bc
       -0.043743037 -0.034843586 0.05640701 -0.008870663
000200 1a e4 9e bd 4a 34 38 3c fe e9 20 bc e9 1f e6 3c
       -0.07758351 0.011242935 -0.009821413 0.028091388
000210 c5 71 84 3b 49 e8 68 3d 87 fe 1c 3d 3a a5 17 bd
       0.0040418827 0.05686215 0.038328674 -0.037022807
000220 e3 1d f1 3c 87 70 40 bd b0 c9 87 bd 69 27 05 bd
       0.029433196 -0.046982314 -0.06630266 -0.032508288
000230 2d 90 ca 3c dc e3 99 bd 1d f3 8f 3d cb 7e 07 bd
       0.024726951 -0.07514164 0.07028792 -0.033079904
000240 a6 01 99 bd 33 5a 87 3d db 27 93 bd 57 45 11 3d
       -0.074710175 0.06609001 -0.07185336 0.03546652
000250 39 26 6f bd 36 46 65 3d 68 09 0a bd cc 65 83 3c
       -0.05838606 0.05597516 -0.033700377 0.016039751
000260 be 3a 66 bc 40 9e 86 bc bf 8a c0 bc 54 28 a7 3d
       -0.014052091 -0.016432881 -0.02350366 0.08161989
000270 f4 b4 b4 bd a9 8c 5a bd bf 9c ad 3d e5 0b c0 3c
       -0.088235766 -0.0533568 0.084771626 0.023443172
000280 d3 69 b0 3d da 13 81 3d 47 9d 36 3c 9c bb 5b bc
       0.08613934 0.063026145 0.011145896 -0.013411429
000290 61 25 89 3d 50 30 c4 bd 1f ba 1e bc 08 e6 26 3d
       0.066965826 -0.095795274 -0.009687929 0.04074672
0002a0 9e e0 45 bd f6 35 a7 3c 65 a9 7f bd 67 ee b2 bd
       -0.048309915 0.020411473 -0.062417407 -0.08736878
0002b0 19 c1 08 bd df 0a 19 3d 88 6e 1d bd 4b 5d e0 3c
       -0.033387277 0.037363883 -0.03843549 0.027388236
0002c0 57 6c 12 3e 2e 0e 59 3d 3e c3 26 3d 82 7c 83 3d
       0.14299141 0.05299204 0.04071354 0.06420232
0002d0 81 85 6c 3d 60 2f 5c bb c0 6d 6a 3d 89 e2 34 3d
       0.057744507 -0.0033597574 0.057233572 0.044161353
0002e0 4a 17 6c 3d 3d 31 6a 3d ff 20 c8 bc 98 10 9f 3d
       0.057639398 0.057175864 -0.024429796 0.07766837
0002f0 8f 1d 17 3d a6 76 82 3c fd 3e 59 bd 13 86 82 3d
       0.036893424 0.015925717 -0.053038586 0.06373229
000300 3b cc ae bc 53 eb 2c bd d2 14 c3 3d a1 46 0d bd
       -0.021337619 -0.04221661 0.095254555 -0.034491185
000310 18 0b 60 3d f0 18 93 3d 43 6a 36 3b 60 9b 5f bb
       0.05469808 0.07182491 0.0027834333 -0.003411971
000320 85 89 ba 3c b1 7c 39 3d b5 87 9f 3d b1 99 96 3d
       0.022770653 0.04528493 0.07789556 0.07353533
000330 7d 26 b3 3c 7d c6 ec ba 0b b7 ec bc 38 c5 db bb
       0.021868939 -0.0018064525 -0.028895875 -0.00670686
000340 3e 61 df bd a7 6f 16 3b 3d da 41 bd 49 4b a0 bc
       -0.10907219 0.0022954734 -0.04732727 -0.019567149
000350 dc 88 93 bb d0 73 1d bd 93 9f d1 bb ca cc 86 bd
       -0.004502399 -0.038440526 -0.0063971966 -0.06582029
000360 d9 ce 3e bd f3 df 9c 3d 1b 3c b2 3b db 5c 6c bd
       -0.046583984 0.076599024 0.005439294 -0.05770574
000370 22 64 09 bd 32 07 c1 3c ba b9 d3 3c 01 13 f0 bc
       -0.03354276 0.023563001 0.025845397 -0.029305937
000380 30 2d 86 bc 74 2c 7b bd c6 4a 9a bd de 05 d5 3c
       -0.016378969 -0.06132169 -0.07533793 0.026003774
000390 9a ac 17 ba f2 f6 92 bd 13 58 8b bd 0a 07 98 3d
       -0.00057859125 -0.07176007 -0.06803908 0.074232176
0003a0 bf 59 58 bd 5b e2 8e 3d e9 f6 3f bd 49 79 98 bc
       -0.052819964 0.06976768 -0.04686633 -0.01861252
0003b0 d6 5b ca b9 17 81 8a bd 92 bd b5 3b 27 d6 48 3d
       -0.00038596865 -0.06762903 0.00554628 0.049032357
0003c0 cd 97 4d 3d e0 e9 96 3d 3a 42 60 bd 6c e7 3f 3d
       0.050193597 0.07368827 -0.05475066 0.04685156
0003d0 4f 68 e8 bc 80 4d 3e 3d 7c 22 95 3d 80 cb a9 3d
       -0.02837005 0.04646063 0.07281968 0.08290768
0003e0 5f 0c 2a bc f7 ae 2c bd 61 24 6d bd 47 d8 82 bd
       -0.010378926 -0.042159047 -0.05789602 -0.06388908
0003f0 cb 43 7d 3d e6 aa 8d bd c1 8e 34 bb 1b 81 83 bc
       0.06183223 -0.06917362 -0.0027550908 -0.016052773

weight_hh_l0 f4 [512, 128]
000000 ca a0 ef 3d aa cf 3f bd b2 03 05 3d f2 2c ae bb
       0.1170059 -0.046828903 0.032474227 -0.0053154165
000010 a4 3b d5 bd d0 e9 6b 3d 5f cb 7d bd cc 1f 6b 3d
       -0.10411766 0.057596028 -0.061961528 0.05740337
000020 07 71 57 3d 4d 27 78 bd 51 f4 38 bd b2 c7 6d bd
       0.052598026 -0.060584355 -0.045154873 -0.058051772
000030 d3 f0 a5 3d 93 40 fd 3d ad a4 62 3d 95 84 a5 3d
       0.08102574 0.12365832 0.05533283 0.08081929
000040 5f b7 90 bd 52 c1 d4 3c ba a8 09 bd 1b 4e 7f bd
       -0.07066225 0.025971089 -0.033608176 -0.062330347
000050 82 94 b5 3d c1 6e 87 3c 1b 2a a6 bc 3f d6 93 bd
       0.08866216 0.016532304 -0.02028375 -0.072185986
000060 3c cf 13 3d a1 27 2a bd 29 89 bd 3d fc 73 37 bd
       0.036086306 -0.0415417 0.09254677 -0.044788346
000070 97 18 2c ba 58 fe fc bd 23 e7 04 be 18 f9 a3 bc
       -0.00065649435 -0.123532 -0.12978797 -0.020016238
000080 13 de ae 3c 87 48 8f bd ea 89 eb 3c 6d 2b ce bb
       0.021346128 -0.06996255 0.028752286 -0.006291798
000090 5e 46 58 bd ea 70 33 bb 4a 97 87 3d cb e0 13 3d
       -0.052801482 -0.0027380534 0.06620653 0.03610305
0000a0 2c 50 c2 bc ae 9e e2 39 b6 bb 36 bd 0e ad 28 3d
       -0.02371987 0.00043224305 -0.04461261 0.041180663
0000b0 43 be fe bc 3d 3b f0 bb f7 b6 43 bd 68 ef 7d 3d
       -0.031096583 -0.0073312805 -0.04778191 0.061995894
0000c0 32 6b a0 3c 11 01 26 3c 91 d8 85 bd b2 c1 6e 3d
       0.019582365 0.01013209 -0.065354474 0.05829019
0000d0 95 49 9a bc b6 7b bf 3d 61 13 a3 bc 63 c8 cb 3d
       -0.018833915 0.09349768 -0.019906702 0.0995033
0000e0 3a eb 38 3b 8f 03 89 3d 9a e5 06 3d a9 90 09 bd
       0.0028216378 0.06690132 0.03293381 -0.033585224
0000f0 87 c0 c8 3d 8c eb 3e bd 24 57 a9 bd fb ca fc 3c
       0.09802347 -0.046611354 -0.08268574 0.030858507
000100 1c 49 71 bd bf ea f4 bc e3 a5 c7 3d 96 4d 8b bd
       -0.058907613 -0.029897092 0.09748437 -0.06801908
000110 ec 43 ed ba c3 9a 3b bc 13 90 cf 3d 3c 25 91 bb
       -0.0018101907 -0.011450472 0.10134902 -0.0044294875
000120 39 1a 69 bd 45 fd 5a 3d 16 5d 96 3d 56 e5 6c 3d
       -0.056909773 0.053464193 0.073419735 0.0578359
000130 9b 6d 95 3d f8 18 32 3d ce 43 e1 3d 33 e4 45 bc
       0.07296296 0.043480843 0.10999261 -0.012078333
000140 c7 a5 3b 3d 03 89 fe bc 81 71 89 bd 19 7a 7d 3d
       0.045812394 -0.031071192 -0.06711102 0.06188402
000150 74 47 86 bd 0a 2d 59 bc ec fa 0a 3c 3b a5 2d bd
       -0.06556597 -0.013255367 0.008482676 -0.042393904
000160 79 d3 83 3d f4 fd 9b 3d cb 6d bb 3d cc ff 40 bd
       0.064368196 0.07616797 0.09151801 -0.047118947
000170 65 bc 84 bd dd aa 20 3c 7d 96 75 bd 4d c2 60 3d
       -0.06481246 0.009806362 -0.05995797 0.0548728
000180 ce 2e 18 bd c9 29 35 bd 0c 28 d0 bc 27 c9 1e 3d
       -0.03715401 -0.044229303 -0.02540972 0.038766053
000190 ad 8b 04 3d 5f 4d 97 3d 13 f5 06 3d 2d 33 91 bd
       0.032359768 0.07387804 0.032948565 -0.07089839
0001a0 bf 8f 3e 3d fa 22 66 3d 9c 16 12 bd 0c 27 6a bd
       0.046523806 0.0561857 -0.035666093 -0.057166144
0001b0 d9 bb 42 3c 6b 8b a4 bd 44 a8 8b 3c dd e0 06 3c
       0.011885607 -0.08034404 0.017048009 0.0082323225
0001c0 11 68 7c bd 58 e0 be bd 35 17 cf 3d 10 ab ac bd
       -0.061622683 -0.09320134 0.10111848 -0.08431065
0001d0 ae 38 9a bd 1d 00 a7 3c ba 53 1d bd b4 ed 48 3c
       -0.07530342 0.020385796 -0.038409926 0.012263704
0001e0 4b d5 f5 39 e0 d5 6e 3d c4 22 19 bb c1 21 3b 3c
       0.00046888957 0.058309436 -0.002336667 0.011421622
0001f0 36 f5 b2 3c ee ba a7 3d 7c a5 35 bd ed 99 b2 3d
       0.021845441 0.08189951 -0.04434727 0.08720765
000200 d8 69 0f 3d 20 9a da ba a0 44 0b bd 4e 19 75 bd
       0.03501305 -0.0016678013 -0.034000993 -0.059838586
000210 c1 2b 92 3d e6 8b 0f 3c 18 19 2b bd 5a b6 b3 3d
       0.07137252 0.008761382 -0.04177198 0.08775015
000220 79 e6 c0 3c 26 3d 99 3d 7b 60 32 3d 3f c8 87 3c
       0.023547398 0.07482366 0.043549042 0.016574977
000230 1d eb a9 3d c8 74 70 3d b5 ba 7f 3d fb 1a 74 bc
       0.082967974 0.05870512 0.062433917 -0.014899011
000240 02 e8 67 3d 7c 39 49 3d 61 fe 77 bd 8c 0b d7 bc
       0.056617744 0.049127087 -0.06054533 -0.026250623
000250 11 09 21 bd c6 8b a6 bd 4e ce 9f bd 1c de b4 bd
       -0.039315287 -0.081321284 -0.07803021 -0.088314265
000260 c2 a4 93 3d ab dc 88 bd 3c bc 2a bd 0f 78 71 3d
       0.072091594 -0.06682714 -0.04168342 0.058952387
000270 33 a9 86 3d f9 57 cc bc 66 1a 16 bd fa 7b 68 bc
       0.06575241 -0.024944292 -0.03664627 -0.014189715
000280 60 c9 86 3d 8a 08 d4 3c 72 37 ba bd d2 bd b3 bc
       0.06581378 0.025882978 -0.090926066 -0.0219411
000290 4d 20 09 bc 8b 99 07 bd f5 7e fd 3c 98 dc ea 3c
       -0.0083695175 -0.033105414 0.030944327 0.02866964
0002a0 ff b5 de bd 64 68 0c bd f0 b7 0a 3d 11 9a 41 bd
       -0.10874557 -0.034279242 0.033866823 -0.04726607
0002b0 b3 dc ac 3c 7b 12 bf 3d e0 a9 56 3d 50 e9 40 bd
       0.021101331 0.09329697 0.0524081 -0.047097504
0002c0 7a f6 a8 3d d8 db 28 b9 df 15 2f 3c f2 9f 2e bc
       0.08250137 -0.00016103627 0.010686367 -0.010658251
0002d0 44 d5 a6 3d 8d 2b 41 bd 7d 7a 35 3d ac fc 2a 3d
       0.08146146 -0.047160674 0.044306267 0.041744873
0002e0 0d 55 12 3d 6e f9 dd 3d 92 4a 98 bc 63 1f e7 3c
       0.035725642 0.108385906 -0.018590245 0.028213209
0002f0 a2 15 9a 3d 5c 50 0d 3c c0 ec 00 bd a7 67 a8 3c
       0.075236574 0.008625116 -0.031475782 0.020557238
000300 dd e9 bd bc e5 f6 8d bb 9e fc b5 3d 9d 46 91 3d
       -0.023182804 -0.0043324106 0.088860735 0.070935465
000310 9c 63 21 3d eb 92 20 3d 7c 3c 47 bb e0 ad 80 bc
       0.039401636 0.039202612 -0.0030401042 -0.01570791
000320 cf b3 92 bc e6 91 19 3d 3a b8 78 bc 35 b1 4a 3c
       -0.017908005 0.037492655 -0.015180642 0.012371351
000330 3c c1 bf 3b 8b 87 1e bd ee de 1a bd e2 d3 5c 3d
       0.0058518928 -0.038703483 -0.03781026 0.053913005
000340 eb 01 9a bd f2 47 ec 3c 3f 34 73 bd 51 1b a7 bd
       -0.07519897 0.0288429 -0.059375998 -0.08159507
000350 28 5b 91 bd d5 73 9a bc 19 b8 8a 3b 9f 5e 92 bc
       -0.07097465 -0.018854061 0.004233372 -0.017867384
000360 26 96 8f 3d 20 ea bf bc 54 3a da bc 7b 0e 96 3b
       0.070110604 -0.02342707 -0.026639141 0.004579363
000370 bd d3 14 3d dd a8 a0 3b 31 70 e6 bd b1 6c 2b 3b
       0.03633474 0.0049029426 -0.112518676 0.0026157314
000380 93 07 8a bd ff a4 85 bd a2 56 70 3d 67 cf 8e 3d
       -0.06739726 -0.06525611 0.05867637 0.069731526
000390 88 3a b5 bc 55 47 3d bd 7d 25 76 bd b6 e2 91 bc
       -0.022122636 -0.046210606 -0.060094345 -0.0178083
0003a0 cd 8a 7a bd 9f 00 ed 3c 5c 2e bc 3c 5b d6 87 bd
       -0.061167527 0.02893096 0.022971325 -0.06632682
0003b0 15 84 cd 3c 51 67 71 bd 3c 6b 5b bc 77 f2 88 bc
       0.025087396 -0.05893642 -0.013392266 -0.016717179
0003c0 88 98 4d bd c1 79 87 bd 3c 6f 2f 3d a7 9a 13 3d
       -0.050194293 -0.066150196 0.04283069 0.03603616
0003d0 a8 99 cc bd d5 a7 39 3d e9 e4 61 bd 5f aa 9d bd
       -0.09990245 0.045326073 -0.055149946 -0.07698511
0003e0 60 a0 52 bd f5 a0 99 3d d6 47 67 bd e7 1b 82 bd
       -0.051422477 0.07501403 -0.056464992 -0.06352978
0003f0 92 ab b4 3c a6 d8 8f bd 77 a8 96 bd 23 a9 61 3d
       0.022054467 -0.07023744 -0.07356351 0.055092942

bias_ih_l0 f4 [512]
000000 55 53 90 bd 6b 21 b9 3c cd 56 44 3d e3 a0 88 bc
       -0.07047144 0.022598943 0.047934342 -0.01667828
000010 c6 3b 28 bd 03 fb 68 3d 6e 9a 86 bd 8d 9f 51 3d
       -0.04107263 0.05688001 -0.06572424 0.05117755
000020 0a 83 0b 3d 43 6b a8 3d 75 f5 c0 3d 86 06 ad bd
       0.034060515 0.082235835 0.09421817 -0.0844851
000030 73 29 84 bd b0 58 79 3d dc a6 8b bc 2f 8a b3 3c
       -0.06453218 0.060875595 -0.017047338 0.021916477
000040 3b c1 86 3c 36 a1 da 3d bb e8 4d 3d e7 4f 46 3d
       0.016449561 0.1067528 0.050270777 0.048416045
000050 32 73 95 3d 62 67 67 3d ca c0 a4 3d 60 81 f1 bc
       0.072973624 0.056495078 0.08044584 -0.029480636
000060 d9 09 54 3c 65 ae 77 bd a2 69 85 bd 65 30 4e bd
       0.012941801 -0.06046905 -0.065142885 -0.05033912
000070 fe 6f 13 3d c9 d5 8b 3d 7c 4c 67 bb d2 c5 5b bc
       0.035995476 0.06827886 -0.003529339 -0.013413863
000080 ad 6c 53 bd f4 f3 59 bd ca 37 06 bd a3 af 72 3c
       -0.051617313 -0.053211167 -0.03276805 0.014812383
000090 ae 08 9c bc a0 02 b5 3d ba 3e 2e bd 9a d8 21 3c
       -0.019047108 0.08838391 -0.04254029 0.009878302
0000a0 4d 2c 44 3d f9 78 a1 3d 84 a8 02 bc 11 74 7a bc
       0.04789381 0.07884402 -0.007974748 -0.015286461
0000b0 fa a0 83 bd da 44 78 bd 54 c9 86 3c ce d4 92 bd
       -0.06427188 -0.060612537 0.016453423 -0.071694955
0000c0 3c 5b 2a bd 77 91 a0 3d 15 ac 86 3d 87 64 a4 bd
       -0.041590914 0.07840245 0.06575791 -0.080269866
0000d0 c0 fa 2e bd 69 c8 49 bd 9a 5f cc bc a7 8d bb ba
       -0.042719603 -0.04926339 -0.02494793 -0.0014309183
0000e0 4c 8b 53 bd f9 d2 66 bd a5 7c 40 3d 98 0e 6e bd
       -0.051646516 -0.056353543 0.04699387 -0.058119386
0000f0 98 d2 5f bd cd b7 03 be ce de 82 3d 43 01 cc 3b
       -0.054644197 -0.12863083 0.06390153 0.0062257363
000100 3c 78 18 bd 13 63 b7 3c 09 40 8f bd 5f ba c1 3d
       -0.03722404 0.02238611 -0.069946356 0.094593756
000110 7f 4a 4f bc e5 a7 8d 3d 53 86 44 3d 8f 63 d0 3c
       -0.012652039 0.06916789 0.047979664 0.025438098
000120 7f 83 89 bd 6e 9c bb bc 26 4f af 3c 07 fc f0 3c
       -0.06714534 -0.02290174 0.021400046 0.029417051
000130 86 d0 38 bc 8c 55 f5 bc b5 fe b0 bc b5 2c 56 3c
       -0.011280185 -0.029948018 -0.021605829 0.013072182
000140 90 2d 97 bc 91 e9 3f bd b4 98 a4 bd 55 ff fb bc
       -0.018454343 -0.046853606 -0.08036938 -0.0307614
000150 04 c3 8e 3d 7d 50 15 bd 28 37 e6 3c 4b 81 4a 3d
       0.0697079 -0.036453713 0.028102472 0.04943971
000160 2b dd 7d bd 00 df 43 bc 9c ff b0 3d a2 ec 66 bd
       -0.0619785 -0.011955023 0.086425036 -0.056378014
000170 1a db 47 3c 70 b2 33 3c 4a 97 8b 3c 15 58 1c bd
       0.012198234 0.010967836 0.017039914 -0.03816994
000180 dd 31 89 3c c4 5e 75 3c f1 30 35 3d 92 a6 00 bd
       0.01674741 0.014976207 0.044236127 -0.031408854
000190 f0 ce b2 3d 78 74 8c 3c 88 75 86 bd 20 8b 56 bd
       0.087308764 0.01714538 -0.06565386 -0.052378774
0001a0 8a fb 97 3d c0 db 43 bd 34 9f e5 bc aa 81 ae 3d
       0.07421024 -0.04781699 -0.028030016 0.08520825
0001b0 3a 70 11 3d 37 c1 aa bd 0e ae 86 bd fa b2 61 3d
       0.03550742 -0.08337634 -0.06576167 0.055102326
0001c0 20 e3 0c bd 53 2d 4b bd 0c 74 c2 3c 8d 66 d5 bc
       -0.03439629 -0.04960377 0.023736976 -0.026049877
0001d0 7b db 2f bd dc 04 65 bd 33 21 a4 3c 1a f8 cf bd
       -0.042933922 -0.055912837 0.020035362 -0.101547435
0001e0 0c c5 87 3d 78 79 f4 3c 6b a6 0d 3c 4d a9 19 3d
       0.066293806 0.029843077 0.008645634 0.037514973
0001f0 15 a3 96 bc 55 03 6d bd fd 01 80 bd 23 a6 d6 bc
       -0.01838831 -0.057864506 -0.06250379 -0.026202267
000200 a9 44 b3 bd 2b 5f 6a bd a6 68 8f 3b 65 be 74 3d
       -0.0875333 -0.057219665 0.0043764887 0.059751887
000210 f6 fd e9 bc e2 30 ee ba 71 98 aa 3d 2e 8d 8c bd
       -0.02856348 -0.0018172527 0.08329857 -0.068628654
000220 a5 75 9b bd 35 02 09 3d c7 c0 c4 3c d0 99 5b 3c
       -0.07590798 0.03344937 0.024017705 0.013403371
000230 2f b1 51 bd f2 f5 3f 3d 09 e1 8e bd 8a 50 26 3d
       -0.051194366 0.04686541 -0.06976516 0.04060415
000240 df 44 31 3d be b3 88 bd 63 e6 a7 bd 7d 31 9c 3d
       0.04327857 -0.06674908 -0.0819824 0.07626627
000250 e6 26 ec 3c 84 9c 9c bd 7a ba 28 bd dd 35 2f 3d
       0.028827142 -0.076470405 -0.041193463 0.042775977
000260 9a 6a 90 bd af 44 b0 3c ac a7 ba 3c cb 4a c7 3b
       -0.07051583 0.021517126 0.02278503 0.006081914
000270 1b b0 b2 bc a6 17 16 bd e1 b1 87 bd 4a 85 40 3d
       -0.02181249 -0.036643647 -0.066257246 0.047002114
000280 bc bf 38 bd 7e 53 6b 3d 17 02 99 3d 8b 7f 91 3c
       -0.045104727 0.05745267 0.07471102 0.017761013
000290 87 e7 38 3d 5a a8 74 bd 05 27 7a 3d 31 bf d1 3c
       0.045142677 -0.059730865 0.06107237 0.025603862
0002a0 92 d8 4e 3b 76 bf 82 bc 4a 34 4e bd 7d 2c 24 3b
       0.0031562191 -0.015960436 -0.050342835 0.002505093
0002b0 b6 a8 66 bd d6 47 8f 3d 9b 3c ae 3c b3 d4 ac bc
       -0.05631324 0.069961235 0.021269133 -0.021097517
0002c0 ee e0 33 3d c9 cf 99 3c b3 19 b3 bd 46 d1 72 3d
       0.04391568 0.018775837 -0.08745136 0.05928161
0002d0 48 d7 be 3c f8 d1 a9 bc b1 7a 24 3d a5 e2 01 3d
       0.023296013 -0.020730004 0.04015607 0.031710286
0002e0 ef dc 86 3b c3 18 4d bc a6 8b 8c bd 20 f6 3d 3d
       0.004115693 -0.012518111 -0.06862573 0.0463773
0002f0 f1 aa 38 bd 6c dc 81 bd be 71 92 3d c6 ca 7c bc
       -0.045084897 -0.0634087 0.07150601 -0.015429204
000300 6e 7f 1a 3d 86 a7 1e bc 22 87 a9 3d 8b 0c 5d bd
       0.037719183 -0.009683495 0.08277728 -0.05396704
000310 5f 87 de bd 1c a6 a7 3d 53 e6 09 bc 9e b7 99 3d
       -0.10865664 0.0818598 -0.00841673 0.07505725
000320 96 f0 40 3d db 74 04 3d 86 34 aa bd 5b e4 fc bb
       0.04710444 0.032338005 -0.08310799 -0.007717652
000330 73 f8 ba bc 86 e1 6e bd 9f 56 b8 bd 26 2d 26 3d
       -0.022823548 -0.058320545 -0.09000897 0.0405704
000340 9c dc 04 bd 0a 30 2b bc 17 66 80 3d 90 88 79 3d
       -0.032436952 -0.010448465 0.06269472 0.06092125
000350 cf 67 a2 bd d3 a7 83 bd 83 ec 04 bd 6a 9c 7c 3d
       -0.07929956 -0.06428494 -0.032452118 0.061672606
000360 32 d7 b8 bd bd f5 2c 3d 93 01 2f bd c7 72 ad bc
       -0.0902542 0.04222654 -0.04272611 -0.021172894
000370 bd eb 2a 3b 33 ca 31 bd b2 f0 d0 bc 62 e6 f2 bc
       0.0026080452 -0.043405723 -0.025505397 -0.02965087
000380 1a d0 12 bd ee 07 19 3d fd 7e 84 3c 95 fa 24 bc
       -0.035842992 0.037361078 0.016173834 -0.010069509
000390 ff a9 96 bd 8e c8 2b 3d c9 ad fb 3a 29 15 db bd
       -0.07356643 0.04193931 0.0019201572 -0.10697395
0003a0 a8 2c db 3c 2f 5d 59 bc 76 94 8d bd 73 1d a1 3c
       0.026754692 -0.013266846 -0.06913082 0.019667363
0003b0 a8 1e 98 bd fa 46 83 3c 7d 93 f0 bc 7e 9b 69 bd
       -0.07427722 0.016025055 -0.029367203 -0.057033055
0003c0 37 5b ed 3b 53 0a 3f bb 06 71 60 3d 22 21 97 3d
       0.0072435397 -0.002915044 0.054795288 0.073793665
0003d0 18 ad 96 3c dd 8b 84 bd 47 69 a1 bd 8f 1a 9a 3b
       0.018393084 -0.06471989 -0.07881408 0.004702873
0003e0 b8 26 91 bc 96 38 a0 3d c1 45 da 3a c2 04 72 bd
       -0.017718658 0.07823293 0.0016652868 -0.05908657
0003f0 b4 0e 07 3b 30 79 33 bd db 2e 6f bd 19 37 c5 bd
       0.002060813 -0.043816745 -0.058394294 -0.0962965
