models/model.pth (torch, 747810 bytes, 18 tensors)

weight_ih_l0 f4 [256, 51]
0	0x3ead7dbf	0.33885
1	0x3ed10b46	0.40828913
2	0xbe62969f	-0.2212777
3	0x3e2f1eba	0.17101565
4	0x3ee4ed86	0.44712466
5	0xbdeb9376	-0.11502735
6	0x3f0ce18c	0.5503166
7	0x3e8e65ae	0.2781195
8	0x3d0bc68d	0.0341249
9	0xbdf74d99	-0.120753475
10	0x3e6718ab	0.22568004
11	0xbe862abd	-0.26204482
12	0x3eb95439	0.3619707
13	0x3d67b1f4	0.056566194
14	0x3c72c52f	0.01481752
15	0x3eb42df7	0.35191318
16	0x3d8bcaf2	0.06825818
17	0xbbdcbdab	-0.0067364774
18	0xbdcb784b	-0.099350534
19	0x3cf5d87a	0.03001045
20	0xbd115a9f	-0.035486814
21	0x3e9506e2	0.29106814
22	0x3e9f3e49	0.31102207
23	0x3d0747c0	0.03302741
24	0xbe988bf0	-0.29794264
25	0x3f1547be	0.58312595
26	0xbddf1d13	-0.10894217
27	0x3ce4312d	0.02785548
28	0x3e8835c0	0.26603508
29	0xbdcfbe2e	-0.10143696
30	0x3d811b90	0.06304085
31	0x3e4a5db1	0.19762303
32	0x3bbcd72b	0.0057629547
33	0x3dde79cd	0.108630754
34	0xbc460c06	-0.012087828
35	0xbe3b50e1	-0.18292572
36	0xbe6fe3db	-0.23426764
37	0xbd7e69ea	-0.062112726
38	0xbe55489f	-0.20828484
39	0x3e2041b3	0.15650062
40	0x3bf60afc	0.0075086337
41	0xbd733f62	-0.05938662
42	0xbd5700a0	-0.05249083
43	0xbf508033	-0.81445616
44	0xbe217ee7	-0.15771066
45	0x3e1899a1	0.14902355
46	0xbd5b6ee6	-0.053572558
47	0xbe31ffd7	-0.17382751
48	0x3f0c7fb6	0.5488237
49	0xbe07a29e	-0.13245627
50	0xbe6f3958	-0.23361719
51	0xbe9032fa	-0.28163892
52	0xbec000a8	-0.375005
53	0xbc18669e	-0.00930181
54	0xbeff89b7	-0.49909756
55	0xbe98e145	-0.29859367
56	0xbd522683	-0.05130626
57	0xbefefc5a	-0.49801904
58	0xbe927499	-0.28604582
59	0xbe448967	-0.1919304
60	0xbe6df959	-0.2323965
61	0xbe4d10c0	-0.20025921
62	0x3ea66ee9	0.32506493
63	0xbeed3c10	-0.46334887
64	0xbe0f9664	-0.14022213
65	0xbd8d73d0	-0.06906855
66	0x3b174d74	0.0023086937
67	0x3df0b498	0.117531955
68	0x3da33fe3	0.0797117
69	0x3d4c55dc	0.04988657
70	0x3dbe35cd	0.092876054
71	0x3d1a740b	0.037708323
72	0xbed1932b	-0.40932593
73	0x3d537934	0.05162926
74	0xbc58e2ae	-0.013237638
75	0xbe83fde5	-0.25779644
76	0xbe3ecb44	-0.18632227
77	0x3dc37761	0.09544254
78	0x3d89515d	0.06704972
79	0xbeb3c7bc	-0.35113323
80	0xbe4f4338	-0.20240486
81	0xbf672daa	-0.9030405
82	0xbe5d9eb8	-0.21642578
83	0xbcb36665	-0.021899411
84	0x3d5e31ec	0.054246828
85	0xbd8d0c33	-0.068870924
86	0xbd141b9b	-0.03615914
87	0x3ea566ee	0.32305092
88	0x3cbbf9a7	0.022946192
89	0xbd868770	-0.065688014
90	0x38c8f9b2	9.5832525e-05
91	0xbe47130a	-0.19440857
92	0xbd48d4df	-0.049031135
93	0x3dfaaa38	0.12239498
94	0xbe405d22	-0.18785527
95	0xbe28c8c6	-0.16482839
96	0xbe0f25b9	-0.13979234
97	0xbc802db4	-0.015646793
98	0x3c5a365c	0.013318624
99	0xbe027b3c	-0.12742323
100	0xbd56a889	-0.05240682
101	0xbdd1604d	-0.10223446
102	0x3e09012e	0.13379356
103	0xbec53f21	-0.38524726
104	0x3ecd931e	0.40151304
105	0x3e284322	0.16431859
106	0xbebedf3c	-0.3727969
107	0x3edd60f4	0.43238032
108	0xbde4ddeb	-0.1117514
109	0xbe8c571f	-0.27410218
110	0x3eb561bb	0.35426125
111	0x3e4a13a3	0.19734053
112	0xbebba3d9	-0.36648443
113	0x3f06bb85	0.5262988
114	0xbe614db0	-0.22002292
115	0xbebe39ba	-0.37153417
116	0x3e5e65ad	0.21718474
117	0x3d9b9460	0.0759666
118	0xbe852423	-0.26004133
119	0x3ea591b0	0.32337713
120	0xbe366f14	-0.1781581
121	0xbe8d76e8	-0.2762978
122	0x3ed1dd81	0.40989307
123	0x3e9be259	0.30446127
124	0xbd7e7744	-0.06212546
125	0x3e9038dc	0.2816838
126	0xbe0622a6	-0.13099155
127	0x3e3512b6	0.17682919
128	0x3ede1958	0.4337871
129	0x3e8231a0	0.25428486
130	0xbcddbc91	-0.027067455
131	0x3e3f3439	0.18672265
132	0xbe2f88fd	-0.171421
133	0x3ddcc9c5	0.10780672
134	0x3e8579b6	0.2606942
135	0xbe63a18d	-0.22229595
136	0x3eab66c6	0.33476847
137	0x3e9b48b9	0.3032892
138	0xbe1a2b3a	-0.15055552
139	0x3e65fb99	0.22459258
140	0x3edff841	0.4374409
141	0x3ec84601	0.3911591
142	0xbd305ff1	-0.043060247
143	0x3ea52ba7	0.32259867
144	0x3ecd0ba9	0.40047958
145	0x3ef5faf6	0.4804303
146	0x3ede334b	0.43398508
147	0x3e9ee540	0.3103428
148	0xbd752ee7	-0.059859183
149	0x3c87be1f	0.016570149
150	0xbebc93cb	-0.36831507
151	0x3dd4e937	0.10396045
152	0x3e26b535	0.16280062
153	0xbf975447	-1.1822594
154	0xbec50946	-0.38483638
155	0xbe059e2a	-0.13048616
156	0xbf393aab	-0.72355145
157	0xbee0cfdf	-0.43908593
158	0x3cb65a90	0.02225998
159	0xbf88951d	-1.0670506
160	0xbeaee516	-0.34159154
161	0x3d5c3c1e	0.05376827
162	0xbf2281da	-0.6347939
163	0x3e70239e	0.23451087
164	0xbe45edcf	-0.19328998
165	0xbf8e02c5	-1.1094595
166	0xbe84c9fb	-0.2593535
167	0x3da0874b	0.07838305
168	0xbee284fa	-0.44242078
169	0x3e6003e7	0.21876489
170	0xbd739199	-0.059465025
171	0xbee54ad1	-0.44783643
172	0xbd1b4f79	-0.037917588
173	0xbdb597e9	-0.08866865
174	0xbebde799	-0.37090757
175	0x3e2b21c8	0.16712105
176	0xbcd09821	-0.025463166
177	0xbf35317f	-0.7077865
178	0xbea67c12	-0.32516533
179	0xbe4f4ee1	-0.20244934
180	0xbcd19d15	-0.025587598
181	0xbf0610ff	-0.52369684
182	0xbe0cab1a	-0.13737145
183	0xbfd62669	-1.6730472
184	0xbec1473d	-0.37749663
185	0xbda40b1c	-0.080099314
186	0x3f1fe51f	0.62458986
187	0xbdf9f866	-0.12205581
188	0xbe212d89	-0.15740027
189	0xbdb8a024	-0.090149194
190	0xbea18f47	-0.31554624
191	0xbe8d1606	-0.27555865
192	0x3d272304	0.040804878
193	0x3ea6286f	0.32452723
194	0x3ddefcf3	0.1088809
195	0xbfb250ed	-1.3930947
196	0xbe8f3533	-0.27970275
197	0x3e46c954	0.19412738
198	0x3f0a178d	0.53942186
199	0x3f557e09	0.8339544
200	0x3f1dc602	0.6163026
201	0x3fb63933	1.4236206
202	0x3f1725a9	0.5904184
203	0x3eaf8adc	0.3428563
204	0x3ebd8fb7	0.37023708
205	0xbf099ebb	-0.5375783
206	0x3edc3792	0.43011147
207	0x3e7820ed	0.2423131
208	0xbef956a4	-0.48698914
209	0x3e6276e8	0.22115672
210	0x3f01b8b9	0.5067249
211	0xbeeed2a0	-0.4664507
212	0x3eb130b7	0.3460748
213	0x3bd6f634	0.0065601114
214	0xbec997ba	-0.3937357
215	0x3d1f4bf5	0.038890798
216	0xbed09780	-0.40740585
217	0xbe7444f3	-0.23854427
218	0x3e3a8ce2	0.18217805
219	0xbdcc113e	-0.09964226
220	0xbc138174	-0.009003032
221	0x3e407b96	0.18797144
222	0x3ec8bf6b	0.3920854
223	0xbe1766df	-0.14785336
224	0x3e2fd00c	0.17169207
225	0xbe84ccf5	-0.2593762
226	0xbe4945f3	-0.1965559
227	0x3ea5a0e6	0.32349318
228	0x3e9222e5	0.28542247
229	0xbf211825	-0.62927467
230	0x3e102382	0.14076045
231	0x3d9e5652	0.07731308
232	0xbea08dff	-0.31358334
233	0x3ea77d7c	0.32712924
234	0xbe6cef79	-0.23138227
235	0xbe828233	-0.2548996
236	0x3e7786c6	0.24172506
237	0x3dffd1fa	0.12491222
238	0xbcaf9235	-0.021432022
239	0x3e64ed62	0.2235618
240	0x3e1dea12	0.15421322
241	0xbdf1a51a	-0.11799069
242	0x3e862f09	0.2620776
243	0x3d9c4ec7	0.07632213
244	0x3c191b01	0.009344817
245	0x3e4e01fa	0.20117941
246	0x3eca2aba	0.39485723
247	0x3f1f5501	0.6223908
248	0x3eb49b06	0.35274523
249	0xbdc4e477	-0.09613889
250	0xbe694b35	-0.22782595
251	0x3df79325	0.120886125
252	0xbf1c26d8	-0.6099677
253	0xbe2eac10	-0.17057824
254	0x3e20226e	0.15638134
255	0xbb94fd7d	-0.0045468197

weight_hh_l0 f4 [256, 64]
0	0xbe6bbb56	-0.23020682
1	0x3d89fb83	0.06737425
2	0xbecdb54f	-0.4017739
3	0xbe4d74e7	-0.20064126
4	0xbe206922	-0.15665105
5	0xbd2db07e	-0.042404644
6	0x3d2bf41d	0.04198085
7	0xbeaaec64	-0.33383477
8	0x3e8e627d	0.27809516
9	0x3cec20ac	0.028824173
10	0xbe0466e7	-0.12929879
11	0xbd1b48e7	-0.037911322
12	0x3f1b319a	0.6062256
13	0xbe1a524e	-0.15070459
14	0xbdf9bdda	-0.121944144
15	0xbc2ac636	-0.010423234
16	0x3e47f868	0.19528353
17	0x3e2da3c8	0.16957009
18	0xbeefcc8c	-0.46835744
19	0xbe57f510	-0.21089578
20	0x3dcf59e2	0.10124566
21	0xbdcb06fc	-0.099134415
22	0x3d5ea011	0.05435187
23	0x3e21d070	0.15802169
24	0xbe88b0df	-0.26697442
25	0x3e1574f6	0.14595398
26	0xbdfa3e4f	-0.12218916
27	0x3daee63c	0.085400075
28	0x3bef6ee3	0.00730692
29	0x3ceda587	0.029009594
30	0x3de7973a	0.11308141
31	0x3ed29a21	0.41133216
32	0xbd17d3b7	-0.03706714
33	0xbdc05db5	-0.09392873
34	0xbdf4e799	-0.11958236
35	0x3dadbbf1	0.084831126
36	0x3d98d224	0.07461956
37	0xbe6688c1	-0.22513105
38	0xba3aa86b	-0.0007120433
39	0xbdd3ece5	-0.103479184
40	0xbedb2e42	-0.4280873
41	0x3c561014	0.013065357
42	0x3d647bdf	0.055782195
43	0x3bb6d985	0.0055801296
44	0xbd60b891	-0.054863516
45	0xbbb0e2b3	-0.0053981184
46	0xbdb8804b	-0.09008845
47	0xbeba861b	-0.3643044
48	0x3e4fb5f2	0.2028425
49	0x3e338700	0.17531967
50	0x3e9af167	0.302623
51	0x3ea58cd1	0.32333997
52	0xbeb258da	-0.34833413
53	0x3d85cf1d	0.06533644
54	0xbd4f0409	-0.050540958
55	0x3e8a1b41	0.26973918
56	0xbd2edf61	-0.0426935
57	0x3d80a96f	0.06282317
58	0xbb9d03cd	-0.004791713
59	0xbe6d2d37	-0.2316178
60	0xbf02f63f	-0.5115699
61	0x3e1ec056	0.15503058
62	0x3cbc2778	0.022968039
63	0xbe751b0b	-0.23936097
64	0xbab39864	-0.0013702032
65	0xbe1cd944	-0.15317255
66	0x3e8049a8	0.25056195
67	0x3eacd7cf	0.337584
68	0x3e6e8233	0.23291855
69	0x3e017fd5	0.1264642
70	0xbe108b49	-0.14115633
71	0x3e26e458	0.16298044
72	0xbe94dd51	-0.290751
73	0xbd36cc0a	-0.04462818
74	0x3d67fea0	0.056639314
75	0x3da255cc	0.07926521
76	0xbe28dabe	-0.16489694
77	0x3d4e13ee	0.050311975
78	0x3e94367a	0.28947812
79	0xbdaa57d5	-0.08317534
80	0xbde115b9	-0.109904714
81	0x3db76c5e	0.08956216
82	0x3e39e53d	0.18153854
83	0x3e81419d	0.2524537
84	0xbd984382	-0.07434751
85	0x3cf27fbf	0.02960193
86	0xbb556b2f	-0.0032565107
87	0xbd4e45b8	-0.050359458
88	0x3e833f0d	0.2563404
89	0x3d22f6e1	0.039786223
90	0x3e9c9cd2	0.30588394
91	0xbe0d7345	-0.13813503
92	0xbd97a9bc	-0.07405421
93	0x3e08c29f	0.13355492
94	0x3dc4ff5e	0.0961902
95	0xbdc585d1	-0.09644664
96	0x3e035ede	0.12829158
97	0x3da15a14	0.07878509
98	0x3c269c17	0.010169051
99	0x3e3bba3a	0.18332759
100	0x3e10836f	0.14112638
101	0x3db914a7	0.09037142
102	0x3e2b5aca	0.16733852
103	0xbc83e74e	-0.016101506
104	0x3dd54974	0.10414401
105	0x3d07733b	0.033068877
106	0xbd383b8c	-0.044978663
107	0x3c105c5f	0.0088110855
108	0xbe065743	-0.13119225
109	0xbcbfde03	-0.023421293
110	0x3e247478	0.16060054
111	0x3e1ecbdb	0.15507452
112	0xbdc5d2bc	-0.09659335
113	0xbe94fbf5	-0.29098478
114	0xbe6fca47	-0.23417006
115	0xbe3eea75	-0.18644126
116	0x3e1b3fe9	0.15161099
117	0x3b892e4f	0.0041864286
118	0x3e02dcf3	0.12779598
119	0xbe1f704d	-0.15570183
120	0xbdcb5760	-0.09928775
121	0x3dac29c3	0.08406403
122	0x3e118d2f	0.14214014
123	0x3e8cbd75	0.27488294
124	0xbe91c1a0	-0.28468037
125	0xbe9d7901	-0.3075638
126	0x3e0e3536	0.13887486
127	0x3e5087ab	0.20364253
128	0x3d0785f8	0.033086747
129	0xbe0c184e	-0.13681147
130	0x3e8ff9ff	0.2812042
131	0x3e58a549	0.21156801
132	0x3e2cd1bf	0.16876887
133	0xbe1ac82b	-0.1511542
134	0x3d45144c	0.04811506
135	0x3e7b17b1	0.24520756
136	0xbe29fbe6	-0.16599998
137	0xbe054594	-0.13014823
138	0x3e1e09d3	0.15433435
139	0x3e25a974	0.16177922
140	0xbb325749	-0.002721267
141	0x3e82ad6c	0.25522935
142	0xbd6ca18c	-0.05777125
143	0xbdc75475	-0.09732906
144	0xbc41213e	-0.011787711
145	0xbd12edef	-0.035871442
146	0x3f03f5d2	0.5154697
147	0x3df5b270	0.11996925
148	0xbe566831	-0.20938183
149	0xbd2cb2eb	-0.042162817
150	0xbd6d149e	-0.05788099
151	0xbe7fb3db	-0.24970953
152	0x3e6ab09b	0.22918932
153	0x3d0b253f	0.033971068
154	0x3e341019	0.17584266
155	0xbe33ec82	-0.1757069
156	0xbbed8790	-0.0072488263
157	0x3e420b6c	0.1894967
158	0x3c3b4434	0.011429835
159	0xbe94da08	-0.29072595
160	0x3e2dcae7	0.16971932
161	0xbe6f9ad2	-0.23398903
162	0xbda40c6a	-0.0801018
163	0x3e2e9ada	0.17051259
164	0xbc9938ec	-0.0187039
165	0x3c2cfa7b	0.010557766
166	0x3e0a6847	0.13516341
167	0x3ce6ae78	0.028159365
168	0x3e30742a	0.17231813
169	0xbdece502	-0.11567117
170	0xbd56beed	-0.052428175
171	0x3e2b0927	0.1670271
172	0xbe4a59af	-0.19760774
173	0x3e30aad6	0.17252669
174	0x3e6e6fb2	0.23284796
175	0x3d1b394f	0.03789645
176	0xbe5acb85	-0.21366699
177	0xbdc1b56f	-0.09458434
178	0xbcdad036	-0.02671061
179	0xbe674178	-0.22583568
180	0x3e290247	0.16504775
181	0xbd0da5e5	-0.034582037
182	0x3dbecdc2	0.09316589
183	0xbe5274f9	-0.20552434
184	0xbdff4b42	-0.12465526
185	0x3ddd739c	0.10813066
186	0x3e853940	0.2602024
187	0x3de8f4a6	0.11374788
188	0xbe5f26dc	-0.21792167
189	0xbe941233	-0.28920135
190	0x3dabf33d	0.083960034
191	0x3e532ff4	0.20623761
192	0xbecf6802	-0.4050904
193	0x3eb88821	0.36041358
194	0xbe484783	-0.1955853
195	0x3f021950	0.50819874
196	0xbeb54208	-0.3540194
197	0x3ef7150c	0.48258245
198	0xbe997423	-0.29971418
199	0xbdc523e8	-0.09625989
200	0x3da5423a	0.08069272
201	0x3eb29077	0.34875843
202	0xbe8f7dff	-0.28025815
203	0xbd6a8148	-0.0572522
204	0x3e4eb55a	0.20186368
205	0x3ca08860	0.019596279
206	0x3eac9927	0.33710596
207	0xbe899b7a	-0.26876432
208	0x3e344994	0.17606193
209	0x3d2c9596	0.042134844
210	0xbe507b46	-0.20359525
211	0xbe38b7ba	-0.18038836
212	0x3cac8adb	0.021062305
213	0x3f0b502c	0.5441921
214	0xbcfedc0f	-0.031110791
215	0x3f2819d1	0.6566439
216	0xbd630f96	-0.055434786
217	0xbe0c9174	-0.13727361
218	0xbe87c659	-0.26518515
219	0x3ebccd5b	0.36875424
220	0x3d95fb62	0.07323338
221	0x3d96e041	0.07366992
222	0xbe308f03	-0.17242055
223	0x3f0c0f5f	0.54710954
224	0xbea5b350	-0.32363367
225	0x3e7e738b	0.24848764
226	0x3e8e6061	0.27807906
227	0xbeb215b9	-0.34782198
228	0x3d2e0f53	0.042495083
229	0xbe4405f3	-0.19142894
230	0x3cb7a290	0.022416383
231	0xbbe7b264	-0.0070708264
232	0x3e4b3d3c	0.19847578
233	0x3d5fec22	0.054668553
234	0x3d6e2af7	0.058146443
235	0xbe1bc961	-0.15213539
236	0x3e6e9de0	0.23302412
237	0xbe426585	-0.18984039
238	0xbe55fb3d	-0.20896621
239	0xbdf247da	-0.11830111
240	0x3e935074	0.28772318
241	0xbe06e218	-0.13172185
242	0x3e62dbf9	0.22154225
243	0x3ec4cd7a	0.38438016
244	0x3ed3f97e	0.41401285
245	0x3eec34dd	0.4613408
246	0xbdecfa4d	-0.115711786
247	0xbec1c773	-0.3784748
248	0x3ea4dc8f	0.32199523
249	0x3e8277bc	0.25481975
250	0xbd54b95d	-0.05193459
251	0xbefeae82	-0.49742514
252	0xbe824099	-0.2543991
253	0x3e89a103	0.26880655
254	0x3e9df7db	0.3085316
255	0x3db287ec	0.08717331

bias_ih_l0 f4 [256]
0	0xbe5bf26a	-0.21479192
1	0x3ccb31f3	0.024804091
2	0x3eaca5a4	0.33720124
3	0xbe2b6b16	-0.16740069
4	0x3ebbb03e	0.366579
5	0x3eb1c2a3	0.3471881
6	0xbe479ff2	-0.19494608
7	0xbdd5b8d1	-0.104356416
8	0x3c866acb	0.016408345
9	0xbd5d561f	-0.05403721
10	0x3e218bc2	0.1577597
11	0xbe87e91c	-0.26545036
12	0x3d48a449	0.0489848
13	0xbe596880	-0.2123127
14	0xbdb23176	-0.0870084
15	0xbe25d1c7	-0.16193305
16	0xbc705bb7	-0.014670304
17	0xbdc944a7	-0.098275475
18	0x3e7b8825	0.24563654
19	0x3dd89a9b	0.10576364
20	0x3b99ec34	0.004697347
21	0x3dbfb736	0.093611166
22	0xbe3d03cc	-0.1845848
23	0x3d64b1e6	0.05583372
24	0x3e6845b8	0.22682846
25	0xbd66247f	-0.05618715
26	0x3e7d6bef	0.24748205
27	0x3df37b5e	0.11888765
28	0xbe2fbe3f	-0.17162417
29	0xbe624cc0	-0.2209959
30	0xbe25cc22	-0.16191152
31	0xbdb7322f	-0.08945119
32	0xbe66f00f	-0.22552513
33	0xbdae3c8a	-0.08507641
34	0xbd851583	-0.06498244
35	0x3d8a7faf	0.06762635
36	0xbe36dc07	-0.17857371
37	0xbd9a4c3f	-0.07534074
38	0xbe03fd65	-0.12889631
39	0xbe027536	-0.12740025
40	0x3e91e60d	0.28495827
41	0xbe81ce36	-0.2535264
42	0xbe41c19f	-0.18921517
43	0xbdeb7dc6	-0.11498599
44	0xbe3f4595	-0.18678887
45	0x3d1bc96d	0.03803389
46	0x3e19c1e3	0.15015368
47	0xbe6b5e15	-0.22985108
48	0x3be6dfbe	0.007045715
49	0xbe243448	-0.16035569
50	0xbd36bd62	-0.044614203
51	0x3e833ed8	0.25633883
52	0x3db86666	0.09003906
53	0xbe429e60	-0.19005728
54	0xbe618e64	-0.22026974
55	0x3d19f77e	0.037589543
56	0xbdd92619	-0.1060297
57	0xbe90a13a	-0.28248006
58	0x3db5f02a	0.08883698
59	0x3e81f260	0.2538023
60	0xbd2ca62d	-0.042150665
61	0x3d18d2d4	0.037310436
62	0xbdab7e38	-0.08373684
63	0x3e96902e	0.29406875
64	0xbe1345c6	-0.14382085
65	0x3e4311ac	0.1904971
66	0xbe54f563	-0.20796733
67	0x3e46a6a6	0.19399509
68	0x3e5d7eac	0.21630353
69	0xbcb19e1f	-0.021681843
70	0xbe49934c	-0.19685096
71	0x3e91d467	0.28482363
72	0x3cd01c72	0.025404189
73	0xbe012f05	-0.12615593
74	0x3dd3703c	0.103241414
75	0xbe5cb980	-0.21555138
76	0xbe3543f3	-0.17701702
77	0x3e8f75ed	0.28019658
78	0xbe142e16	-0.14470705
79	0xbe8b59e3	-0.27217016
80	0x3e1a2ff7	0.1505736
81	0xbeb453bb	-0.3522013
82	0x3e610fc0	0.21978664
83	0x3da47ed2	0.080320016
84	0xbec09e9e	-0.37621015
85	0x3e4fc8fd	0.20291515
86	0xbe58eeca	-0.21184841
87	0xbc682e0c	-0.014171135
88	0x3db41462	0.0879295
89	0x3e9a48c3	0.30133638
90	0xbd2dec3c	-0.04246162
91	0x3d1494ca	0.03627471
92	0xbd9858d6	-0.07438819
93	0x3b8e17eb	0.0043363473
94	0xbc61225e	-0.013741104
95	0x3daaaf16	0.08334176
96	0xbe8ce757	-0.27520248
97	0x3e0ee18a	0.13953224
98	0xbe2ba0ca	-0.16760555
99	0x3e7d11bb	0.24713795
100	0xbd85dfba	-0.06536813
101	0x3d43f58c	0.047841594
102	0x3ce033bb	0.027368417
103	0xbe906f17	-0.28209755
104	0x3db41ffd	0.08795164
105	0xbe2fa248	-0.17151749
106	0xbe12b435	-0.14326556
107	0xbdf5ec24	-0.12007931
108	0xbdb690eb	-0.0891436
109	0xbe260958	-0.16214502
110	0x3dde0aee	0.108419284
111	0x3a89101b	0.001045707
112	0x3df826ef	0.12116801
113	0xbe44a970	-0.1920526
114	0xbe3aee34	-0.1825493
115	0x3dab3909	0.08360488
116	0x3e2d925e	0.16950366
117	0xbdfd511c	-0.12368986
118	0xbe050658	-0.12990701
119	0x3de39adb	0.11113521
120	0xbd65f2a6	-0.05613961
121	0xbe358b99	-0.17729034
122	0x3dd8d212	0.10586943
123	0x3d6f7bed	0.058467794
124	0xbe61d9b3	-0.22055702
125	0x3d9011ab	0.0703462
126	0xbe6fa93b	-0.234044
127	0x3e9a4cbe	0.30136675
128	0x3c95ebf8	0.018300995
129	0xbdf971ac	-0.12179884
130	0x3d422447	0.047397878
131	0x3cb1d276	0.0217068
132	0x3d6ed961	0.058312777
133	0xbe6e8294	-0.23291999
134	0xbdaadcdf	-0.08342909
135	0x3dd813df	0.10550665
136	0xbdadc207	-0.084842734
137	0x3c9104fb	0.01770257
138	0x3dc58008	0.09643561
139	0x3df40a97	0.11916082
140	0xbde4dd2c	-0.11174998
141	0x3d5e64ea	0.054295458
142	0xbce12f63	-0.027488416
143	0xbe57dce2	-0.21080354
144	0xbd48df4b	-0.049041074
145	0x3c39d4f7	0.011342279
146	0x3d1c236a	0.03811971
147	0x3d391369	0.045184527
148	0x3c364e9e	0.011127142
149	0xbd67db9b	-0.056605916
150	0x3dd35422	0.103187814
151	0xbe3c83d4	-0.18409663
152	0x3d77eca1	0.0605284
153	0x3dd219b9	0.102588125
154	0x3e107168	0.14105761
155	0xbdeb1b07	-0.114797644
156	0xbda495ba	-0.080363706
157	0x3ca29df4	0.019850709
158	0xbddf03bb	-0.108893834
159	0xbe85ff83	-0.26171502
160	0xbcb75748	-0.022380486
161	0xbe00b7b5	-0.12570079
162	0xbdddcc13	-0.1082994
163	0x3e73e7e3	0.23818927
164	0xbd31c57c	-0.043401226
165	0x3db43542	0.087992206
166	0x3de79fc8	0.11309773
167	0xbd157621	-0.03648961
168	0x3d36f20b	0.044664424
169	0xbcb8b415	-0.022546807
170	0xbddf43a9	-0.10901577
171	0xbc83f078	-0.016105875
172	0xbe66bbf7	-0.2253264
173	0x3deb81f0	0.11499393
174	0x3e4056b6	0.18783078
175	0xbe9f9cba	-0.3117426
176	0xbe5095d9	-0.20369662
177	0xbe762078	-0.24035823
178	0xbe24b9bd	-0.16086479
179	0xbd7c619a	-0.061616518
180	0xbd1434f4	-0.036183313
181	0xbd67892d	-0.056527305
182	0x3d9a14af	0.07523476
183	0x3dfa0b10	0.12209141
184	0xbdfecca5	-0.124413766
185	0x3d06d2e2	0.032915957
186	0x3e040dcc	0.12895888
187	0x3e29cd5b	0.16582243
188	0x3d055bcb	0.032558244
189	0xbd5d0a1f	-0.05396473
190	0xbd14a750	-0.036292374
191	0xbdda0779	-0.106459565
192	0xbd4f53e1	-0.050617103
193	0xbdbae62f	-0.09125935
194	0x3ea79905	0.32733932
195	0xbe251e28	-0.16124785
196	0xbcc3ab2e	-0.023885336
197	0xbdb744aa	-0.089486435
198	0xbe5cc462	-0.21559289
199	0x3e94a7ad	0.29034176
200	0xbe3b6d49	-0.18303408
201	0xbd7b8ec5	-0.061415453
202	0x3e1c6ff0	0.15277076
203	0xbe5135c3	-0.20430665
204	0x3e4d439f	0.20045327
205	0xbe566956	-0.2093862
206	0xbcb1d76c	-0.021709166
207	0xbd1139e8	-0.035455614
208	0xbda7304b	-0.08163508
209	0xbd2a49db	-0.04157434
210	0x3e956eb4	0.29186022
211	0xbe064fa6	-0.13116321
212	0xbe2d4215	-0.1691974
213	0xbd0441c1	-0.03228927
214	0xbe43c9f5	-0.19120009
215	0x3e3def81	0.18548395
216	0x3c76e43b	0.015069063
217	0x3d92a9ac	0.071612686
218	0xbe0913f2	-0.13386515
219	0x3cc2cc6e	0.02377912
220	0xbdadae73	-0.08480539
221	0xbe6c0ece	-0.23052523
222	0xbdd838aa	-0.10557683
223	0x3e12aaa6	0.1432291
224	0x3d8260d9	0.063661285
225	0x3d05b284	0.03264095
226	0xbd9d0d32	-0.076685324
227	0xbdc113b9	-0.0942759
228	0xbe3bac97	-0.18327557
229	0x3e0ae4d0	0.13563848
230	0x3c5857b7	0.013204507
231	0xbd80c696	-0.06287877
232	0x3eba452e	0.36380905
233	0xbdbb3d87	-0.09142595
234	0xbba9e61a	-0.005184901
235	0xbd56b7e6	-0.052421473
236	0x3d816814	0.063186795
237	0xbe14af65	-0.14520033
238	0x3d91828a	0.071049765
239	0x3e746e14	0.23870116
240	0x3da9e9d4	0.08296552
241	0xbd3aca82	-0.045603283
242	0x3d8425c6	0.06452517
243	0xbd43dbcb	-0.047817033
244	0x3ee3f45b	0.44522366
245	0xbe6e46f0	-0.23269248
246	0xbddf293c	-0.10896537
247	0xbe3f39c0	-0.18674374
248	0x3ce8948a	0.028391141
249	0xbe9f9d28	-0.31174588
250	0xbdf633eb	-0.12021621
251	0x3d0b3e4f	0.03399497
252	0x3dff4d78	0.12465948
253	0x3e0c5164	0.13702923
254	0xbd5f71e2	-0.054551966
255	0x3e898472	0.2685886

bias_hh_l0 f4 [256]
0	0xbdb16f05	-0.086637534
1	0xba16e41a	-0.00057560357
2	0x3eaf67bc	0.3425883
3	0xbe3d2e4e	-0.18474695
4	0x3e418fc3	0.18902497
5	0x3e338d5a	0.1753439
6	0xbea2b5c8	-0.31779313
7	0xbcfe01c6	-0.031006705
8	0xbdd7f02f	-0.10543858
9	0xbe61b446	-0.22041425
10	0x3e2d2ed7	0.16912399
11	0xbe9cd21a	-0.30629045
12	0x3ddc535b	0.10758086
13	0xbec1e167	-0.3786728
14	0xbc1ec935	-0.009691526
15	0xbe80f880	-0.2518959
16	0xbdbb6039	-0.091492124
17	0xbd840bf7	-0.064475946
18	0x3e0216dc	0.12704033
19	0x3e065096	0.13116679
20	0xbe04282e	-0.12905952
21	0x3e5114e4	0.20418125
22	0xbe329655	-0.1744016
23	0x3d845034	0.0646061
24	0x3da6dffc	0.081481904
25	0xbe0a23ab	-0.13490169
26	0x3e280e81	0.16411783
27	0x3e11aa8d	0.14225216
28	0xbe83f732	-0.25774533
29	0xbe729603	-0.23690037
30	0xbdd64182	-0.104617134
31	0xbd820341	-0.06348277
32	0xbe00b9aa	-0.12570825
33	0xbe45e23c	-0.19324583
34	0xbdf2d48d	-0.11856947
35	0xbd8e90e1	-0.06961227
36	0xbe814081	-0.25244525
37	0x3dacf8c7	0.08445888
38	0xbc7ced74	-0.015437473
39	0xbe393359	-0.18085994
40	0x3e7dde25	0.24791773
41	0xbdb318f9	-0.087449975
42	0xbdbef8a5	-0.09324769
43	0xbe727d99	-0.23680724
44	0xbe185831	-0.14877392
45	0xbe041849	-0.12899889
46	0x3e01e045	0.12683208
47	0xbeb19005	-0.3468019
48	0x3c4ed9ed	0.0126252
49	0xbe3030ca	-0.17206112
50	0xbe1c4e50	-0.15264249
51	0x3e9072d7	0.28212616
52	0x3d74b1e6	0.05973997
53	0xbdef2103	-0.11676218
54	0xbe9e3e24	-0.30906785
55	0x3c2e3566	0.010632848
56	0xbe269910	-0.16269326
57	0xbe6380ae	-0.22217056
58	0x3dbbf5f1	0.09177769
59	0x3e57fc74	0.21092397
60	0xba37ef07	-0.0007016514
61	0x3e4fe908	0.20303738
62	0xbcaf8ede	-0.02143043
63	0x3e888567	0.26664278
64	0xbd790254	-0.060793236
65	0x3d7586a7	0.059942868
66	0xbe2496e3	-0.16073184
67	0x3d76c5ee	0.060247354
68	0x3e53a9fd	0.20670314
69	0xbdcc8e05	-0.099880256
70	0xbb4eab68	-0.0031535272
71	0x3ded70c1	0.11593772
72	0x3dcb9e29	0.09942276
73	0x3c2ff725	0.010740076
74	0x3b918c52	0.0044417763
75	0xbe706bb9	-0.23478593
76	0xbe359f9f	-0.17736672
77	0x3dbd0358	0.092291534
78	0xbc84f70b	-0.01623108
79	0xbe89cec9	-0.26915577
80	0x3e12d5c5	0.14339359
81	0xbe2a579a	-0.1663498
82	0x3ea8cd06	0.3296892
83	0x3df6212f	0.12018048
84	0xbea16b4d	-0.31527176
85	0x3deeba82	0.11656667
86	0xbe141a5f	-0.14463185
87	0xbd2f4022	-0.04278577
88	0x3e5299c7	0.20566474
89	0x3e837ea4	0.25682557
90	0x3de1523c	0.11002013
91	0x3c51aceb	0.0127975745
92	0xbe3514f8	-0.1768378
93	0xbe176700	-0.14785385
94	0xbe51e4f6	-0.20497498
95	0x3e1d0f34	0.15337831
96	0xbe0e1495	-0.13875039
97	0x3c0793a1	0.008274944
98	0xbce427d1	-0.027851017
99	0x3e3b4c74	0.18290883
100	0xbdc5d4fb	-0.096597634
101	0xbd906896	-0.07051198
102	0xbe3ea32e	-0.18616936
103	0xbd1a2de5	-0.037641425
104	0x3d839204	0.06424335
105	0xbe3b7f33	-0.18310241
106	0xbd83bff5	-0.06433097
107	0xbe2b3457	-0.16719185
108	0xbe322420	-0.17396593
109	0xbd198900	-0.03748417
110	0x3d75a6ab	0.0599734
111	0x3dbdb216	0.09262483
112	0x3e2904c4	0.16505724
113	0xbe9524e8	-0.2912972
114	0xbe1aef7b	-0.15130417
115	0x3e685bfa	0.22691336
116	0x3e3f5a82	0.1868687
117	0xbdaee259	-0.08539266
118	0xbdd4d380	-0.10391903
119	0x3e21dc02	0.15806583
120	0xbd22109b	-0.039566617
121	0xbe051e03	-0.1299973
122	0x3e048f0a	0.1294519
123	0x3ba59bd8	0.0050539784
124	0xbe9d29ae	-0.30695862
125	0x3d87b7f9	0.06626887
126	0xbea9bf8e	-0.33153957
127	0x3e75e7f2	0.24014261
128	0x3dde9b37	0.10869449
129	0xbe251854	-0.16122562
130	0xbd4cb5f4	-0.04997821
131	0xbe11b770	-0.14230132
132	0x3dd80db1	0.105494864
133	0xbddbf675	-0.10740367
134	0xbe1745c3	-0.14772706
135	0x3e457317	0.19282185
136	0xbc9bdd39	-0.019026386
137	0xbda8686a	-0.082230404
138	0x3e33783c	0.17526335
139	0x3de75a52	0.11296524
140	0xbe064586	-0.13112459
141	0x3d25d279	0.040483925
142	0xbd84e40e	-0.064888105
143	0xbdd0bca5	-0.10192231
144	0xbe0c5b56	-0.13706717
145	0x3d2e508b	0.04255728
146	0xbbe94796	-0.0071191294
147	0x3e5967ba	0.21230975
148	0xbd5224c9	-0.051304612
149	0xbe79271e	-0.24331328
150	0xbd837976	-0.06419651
151	0xbdb0ec87	-0.08638864
152	0x3e0805c2	0.13283446
153	0x3e3195f7	0.17342363
154	0x3dc6b884	0.09703162
155	0x3cc5b695	0.024134913
156	0x3d4a566e	0.049398832
157	0xbb0283c8	-0.0019914974
158	0xbd0f66e5	-0.035010237
159	0xbe477063	-0.19476466
160	0x3e42daea	0.19028822
161	0xbdb7c23b	-0.089725934
162	0x3daf74f9	0.08567233
163	0x3e7c4613	0.24636106
164	0x3d14e311	0.03634936
165	0x3e509750	0.20370221
166	0x3d6fdd68	0.05856076
167	0x3dd4ca60	0.103901625
168	0x3bee4ee7	0.0072725895
169	0x3e0532bb	0.13007633
170	0xbc285ec0	-0.010276496
171	0x3ca55b3e	0.02018511
172	0xbe3f6957	-0.18692528
173	0xbd819ca6	-0.063287064
174	0x3b8a4850	0.004220046
175	0xbe0bdfc8	-0.13659585
176	0xbe939d16	-0.28830785
177	0xbdcac0e7	-0.099000745
178	0xbe102c63	-0.14079432
179	0xbe240b53	-0.16019945
180	0x3d6c05fc	0.057622895
181	0x3bd9bfec	0.0066451933
182	0xbcc30f03	-0.02381087
183	0x3dfe22a0	0.12408948
184	0x3c0283e0	0.007966012
185	0xbdde741b	-0.10861989
186	0x3dfbed36	0.12301104
187	0x3def4a1b	0.11684056
188	0x3be1c61f	0.006890073
189	0xbe787710	-0.24264169
190	0xbd762d90	-0.060102046
191	0xbda295d2	-0.07938732
192	0xbe11949b	-0.14216845
193	0xbd70ffb3	-0.058837604
194	0x3eba8d4b	0.36435923
195	0xbe3334ed	-0.17500658
196	0x3d166477	0.036716904
197	0x3d4831cf	0.048875626
198	0xbdefb0c1	-0.11703635
199	0x3e6d78ec	0.2319066
200	0xbd8c26fd	-0.06843374
201	0xbe6d5729	-0.2317778
202	0xbcad1416	-0.021127742
203	0xbe89ad7b	-0.26890168
204	0x3e19db87	0.1502515
205	0xbe555a40	-0.20835209
206	0x3d96a40f	0.073555104
207	0xbc8c7c7f	-0.017149208
208	0xbe2f6620	-0.17128801
209	0xbdd6bcb4	-0.10485211
210	0x3e4619af	0.19345735
211	0xbd8e8dc2	-0.06960632
212	0xbdebb7dc	-0.11509678
213	0xbdb87a85	-0.09007744
214	0xbe1f7124	-0.15570503
215	0x3e51e528	0.20497572
216	0xbb7a8f56	-0.0038232408
217	0xbb3afff5	-0.002853391
218	0x3d0d4957	0.03449377
219	0x3c757965	0.014982556
220	0xbe9040fd	-0.28174582
221	0xbe805e4a	-0.25071937
222	0xbdf03626	-0.11729078
223	0xbcc3ff6a	-0.023925502
224	0x3c8bc806	0.017063152
225	0x3da51702	0.08061029
226	0xbd07387c	-0.033012852
227	0x3c5aa85a	0.013345802
228	0xbdb39e12	-0.08770384
229	0x3e2c2de8	0.16814387
230	0xbd89073c	-0.06690833
231	0xbe3e8c72	-0.18608263
232	0x3eaefdc6	0.3417799
233	0xbd2c6292	-0.04208619
234	0xbe4dcc83	-0.20097546
235	0xbe249ff2	-0.1607664
236	0xbd4b024b	-0.049562734
237	0xbb868d4b	-0.004106199
238	0xbdc714a3	-0.09720733
239	0x3e0a4eb4	0.13506585
240	0x3de77c66	0.11303024
241	0xbe872185	-0.2639276
242	0x3d201619	0.039083574
243	0xbb987de1	-0.004653678
244	0x3eccf5c0	0.40031242
245	0xbdd62f90	-0.104582906
246	0xbdcad383	-0.09903624
247	0xbb987207	-0.004652265
248	0x3d95278f	0.07282936
249	0xbece6800	-0.4031372
250	0xbd333898	-0.043755144
251	0x3da6eb4d	0.08150349
252	0x3e2e0b5c	0.16996521
253	0x3dbe6bd0	0.09297907
254	0xbd178ba6	-0.036998414
255	0x3e6465f0	0.22304511

weight_ih_l0 f4 [512, 64]
0	0x3e26a128	0.16272414
1	0x3d042b4c	0.032267854
2	0x3d1877bf	0.037223574
3	0x3ed2f709	0.41204098
4	0xbe0352b6	-0.1282452
5	0x3e9ed0f0	0.31018782
6	0xbd3a218f	-0.04544216
7	0xbab36191	-0.0013685693
8	0xbe1f05c9	-0.1552955
9	0x3d433af7	0.047663655
10	0xbdbeb38a	-0.09311588
11	0xbe3c551a	-0.18391839
12	0xbba7954a	-0.005114232
13	0x3dd12ce9	0.10213644
14	0xbe763208	-0.24042523
15	0xbe3963a9	-0.18104424
16	0x3c2a5b1e	0.010397701
17	0x3dcea3ed	0.1008986
18	0x3c3c44cc	0.011491012
19	0xbd6294c9	-0.055317674
20	0xbf356d37	-0.70869774
21	0xbc86c752	-0.016452465
22	0x3dc6e04c	0.0971075
23	0x3edf9ee8	0.43675923
24	0x3cb6760f	0.022273092
25	0x3e83576b	0.25652632
26	0xbe9413ba	-0.289213
27	0xbd390108	-0.045167
28	0xbd610d8a	-0.054944552
29	0x3d1f09ea	0.038827814
30	0x3dcbad97	0.09945219
31	0x3e16a4aa	0.14711252
32	0xbea54fe2	-0.32287508
33	0xbec641f7	-0.38722202
34	0xbbed5ffc	-0.0072441082
35	0xbd499540	-0.0492146
36	0xbdaf2e24	-0.085537225
37	0xbed71bfd	-0.4201354
38	0x3eb02580	0.3440361
39	0xbed8f972	-0.42377812
40	0xbe26b5da	-0.16280308
41	0x3da2ce04	0.079494506
42	0x3ca8d738	0.020610437
43	0x3e6983ec	0.2280423
44	0x3d14aa40	0.036295176
45	0x3ebe4844	0.3716451
46	0x3c9523b1	0.018205496
47	0xbcdc9d74	-0.026930548
48	0x3c9b2149	0.01893677
49	0xbea4a1c2	-0.3215466
50	0xbde8db4b	-0.11369952
51	0x3df31118	0.11868495
52	0xbed232ea	-0.4105447
53	0xbd1da135	-0.038483817
54	0x3dee5bf3	0.11638632
55	0xbd85c913	-0.065324925
56	0xbed68449	-0.418978
57	0x3cee3756	0.02907912
58	0xbd6fbcd3	-0.058529686
59	0xbe7d124c	-0.24714011
60	0xbec62a1d	-0.38704005
61	0x3be05ad9	0.0068467674
62	0x3e8d6fb6	0.2762429
63	0xbda533e2	-0.080665365
64	0xbd24482b	-0.040107887
65	0xbdd630e6	-0.104585454
66	0x3eec7f79	0.46191004
67	0xbf21da1b	-0.6322343
68	0x3eb813f7	0.35952732
69	0xbf3b44e9	-0.73152024
70	0x3c00761e	0.007840661
71	0x3d37e69e	0.044897668
72	0x3e050872	0.12991503
73	0xbd313eeb	-0.043272894
74	0x3eb19aa5	0.34688297
75	0x3ddf56b1	0.10905207
76	0xbda184d4	-0.07886663
77	0xbc2e28cd	-0.010629845
78	0x3f6f4885	0.9347003
79	0x3d0b129e	0.0339533
80	0xbd9437c8	-0.07237202
81	0x3d6c1989	0.05764154
82	0x3e9989df	0.29988
83	0x3e3dba27	0.18528043
84	0x3ef015dc	0.46891677
85	0x3e763834	0.24044877
86	0xbd38d344	-0.045123354
87	0xbf1ce34b	-0.6128432
88	0x3e5e2340	0.21693134
89	0xbd12b599	-0.035817716
90	0x3e6a356d	0.22871943
91	0xbd6ca7c0	-0.057777166
92	0xbd599733	-0.05312271
93	0x3dd10c84	0.10207465
94	0x3d794a15	0.060861666
95	0xbf07ddf1	-0.5307303
96	0xbcef0bfe	-0.029180523
97	0x3e9726d8	0.29521823
98	0xbaeb4ace	-0.0017951371
99	0xbbb7b18d	-0.0056058825
100	0x3c1af121	0.009456904
101	0x3f144688	0.5792012
102	0xbdbc39f2	-0.0919074
103	0x3df314dc	0.11869213
104	0x3e7257c8	0.23666298
105	0x3d1f1d10	0.038846076
106	0x3c49d18b	0.012318025
107	0x3dc5ae63	0.09652402
108	0xbefe351c	-0.49649894
109	0xbf2d5f2b	-0.6772334
110	0x3e39b670	0.18136
111	0xbbdebc83	-0.0067973747
112	0xbe751d73	-0.23937015
113	0x3c4b870c	0.012422334
114	0xbdc07ce8	-0.09398824
115	0xbeb2708c	-0.3485149
116	0x3f302582	0.6880723
117	0x3dab5516	0.08365838
118	0xbdcd8c12	-0.10036482
119	0x3e6f230f	0.23353218
120	0x3e6beabd	0.23038764
121	0x3d78b6ae	0.060721092
122	0x3e4d0cae	0.20024368
123	0x3e8bc32b	0.2729734
124	0x3edba37f	0.42898175
125	0xbd41446a	-0.047184385
126	0xbe390958	-0.1806997
127	0x3c157208	0.009121425
128	0xbe339282	-0.17536357
129	0x3d9ad865	0.07560805
130	0xbe16f2e3	-0.14741091
131	0xbe5734ff	-0.2101631
132	0xbe93422a	-0.28761417
133	0x3e86206a	0.26196605
134	0xbd044c98	-0.032299608
135	0xbe78a6bc	-0.24282354
136	0x3e8f6d85	0.28013244
137	0xbe2bb877	-0.16769587
138	0xbe417735	-0.1889313
139	0x3d80f5df	0.06296896
140	0x3e87b79e	0.26507276
141	0xbdacf3e2	-0.084449545
142	0x3ea5a890	0.32355165
143	0x3e2d74c1	0.1693907
144	0x3d847ddc	0.06469318
145	0x3caedf2e	0.021346655
146	0xbe9d828d	-0.30763665
147	0xbe8e27d0	-0.2776475
148	0xbe19dd44	-0.15025812
149	0x3e12fdcd	0.1435463
150	0xbce9bb70	-0.02853176
151	0x3dc09db7	0.09405082
152	0xbe4fc385	-0.20289429
153	0xbddfcea4	-0.109280854
154	0xbe62a565	-0.22133406
155	0x3e42693d	0.18985458
156	0x3ceb54c6	0.028726947
157	0xbe237d05	-0.1596566
158	0xbdc7fae9	-0.09764654
159	0x3e6a4e72	0.22881487
160	0x3e26adb5	0.16277201
161	0x3d920e53	0.071316384
162	0xbdcba53f	-0.099436276
163	0xbcfa8216	-0.030579608
164	0x3e82df75	0.2556111
165	0xbd3c2ebd	-0.04594301
166	0xbe711bb8	-0.2354573
167	0xbc4c71a6	-0.012478268
168	0x3e021469	0.12703098
169	0xbce8892b	-0.02838572
170	0x3da8189c	0.08207819
171	0xbccbf7ef	-0.024898497
172	0x3eba0429	0.363313
173	0xbe651b94	-0.22373801
174	0xbe883a15	-0.26606813
175	0xbe672225	-0.22571619
176	0x3e80a84a	0.25128394
177	0xbe19168d	-0.14950009
178	0x3e8219b3	0.25410232
179	0x3e534303	0.20631032
180	0x3e0196df	0.12655209
181	0xbd936566	-0.071970746
182	0xbd1162c3	-0.035494577
183	0x3e428c44	0.1899882
184	0x3e11568a	0.14193168
185	0x3e19a4f9	0.15004338
186	0xbd922ce8	-0.071374714
187	0xbd5cb267	-0.053881075
188	0xbd788e95	-0.06068285
189	0x3e8651fc	0.26234424
190	0x3d324556	0.043523155
191	0x3dfdd13a	0.123934224
192	0xbca14c86	-0.01968981
193	0xbe665117	-0.22491871
194	0x3ee28e84	0.44249356
195	0xbf221f3f	-0.6332893
196	0x3e336f81	0.17523004
197	0xbf7b14da	-0.9807869
198	0x3dee362c	0.11631426
199	0x3d8833a2	0.06650473
200	0x3e9882af	0.29787204
201	0xbde04456	-0.10950534
202	0x3eb5e488	0.35525918
203	0xbc97ef02	-0.018546585
204	0xbe4343df	-0.1906886
205	0xbe78133b	-0.24226086
206	0x3f570d68	0.8400483
207	0x3eb2a2ab	0.3488973
208	0xbcbcbe99	-0.023040103
209	0x3d546c14	0.051860884
210	0x3e9925ad	0.29911557
211	0x3b99e6ff	0.0046967263
212	0x3e85bfa9	0.26122788
213	0x3e5b0275	0.21387656
214	0x3b147757	0.002265414
215	0xbf0388fc	-0.51380897
216	0x3de170ab	0.11007818
217	0xbd049bc7	-0.032375123
218	0x3e4f3a13	0.20236997
219	0xbe57858c	-0.21047038
220	0x3e13bde5	0.14427908
221	0x3e2851bf	0.16437434
222	0x3d43cc8b	0.04780249
223	0xbef3220b	-0.4748691
224	0x3db78c2d	0.08962283
225	0x3ea02a9f	0.31282517
226	0x3cc648ba	0.0242046
227	0xbe3011ae	-0.17194244
228	0x3da859cd	0.08220253
229	0x3ec4bbc8	0.38424516
230	0xbeddf2aa	-0.433492
231	0x3e326da4	0.17424637
232	0x3ea43784	0.32073605
233	0xbd318c96	-0.043346964
234	0xbd7d1723	-0.061789643
235	0xbd314c0a	-0.043285407
236	0xbe8909e6	-0.26765364
237	0xbf076719	-0.5289169
238	0x3e814c97	0.25253746
239	0xbda9a924	-0.08284214
240	0xbdabb2a4	-0.08383682
241	0xbe9a3b51	-0.3012338
242	0xbba06322	-0.00489463
243	0xbe88008c	-0.26562917
244	0x3f0d9fb9	0.5532184
245	0xbc94023b	-0.01806747
246	0xbd02f9c7	-0.031976487
247	0x3eb572e2	0.3543921
248	0x3e9cef28	0.30651212
249	0x3db2760e	0.087139234
250	0x3e246213	0.16053037
251	0x3e85684e	0.2605614
252	0x3d221f4b	0.039580625
253	0xbc242149	-0.010017701
254	0xbd742fce	-0.059615903
255	0x3d221a58	0.039575905

weight_hh_l0 f4 [512, 128]
0	0x3d566328	0.052340657
1	0x3d5375e3	0.051626097
2	0x3e393441	0.1808634
3	0x3dad9295	0.08475224
4	0x3dab5808	0.083664
5	0xbe20173e	-0.15633866
6	0xbd64b049	-0.05583218
7	0xbebbfc71	-0.36716035
8	0xbe4c5e18	-0.19957769
9	0xbbacc199	-0.005272102
10	0xbd9175eb	-0.07102569
11	0x3cfd22ea	0.030900437
12	0xbd7d23f7	-0.061801877
13	0xbd808691	-0.062756665
14	0x3e8a50f1	0.27014878
15	0x3d0522d7	0.03250393
16	0xbd75b3a9	-0.05998579
17	0xbd6999b0	-0.057031333
18	0xbc6a6139	-0.014305406
19	0xbe4a8c07	-0.19779979
20	0xbde26445	-0.11054281
21	0x3e421d5b	0.1895651
22	0xbc6a2c8a	-0.0142928455
23	0xbdc2b912	-0.095079556
24	0x3d017719	0.03160772
25	0x3d21c033	0.039489936
26	0x3c02f3a1	0.007992656
27	0x3c9673fc	0.018365853
28	0xbe860203	-0.2617341
29	0x3c9ad84d	0.018901968
30	0xbde35335	-0.11099855
31	0x3d678bc0	0.05652976
32	0x3b9f1e76	0.004855926
33	0xbdeaf2f8	-0.11472124
34	0xbd87afa0	-0.06625295
35	0x3e43ef32	0.19134215
36	0xbccf5c20	-0.025312483
37	0xbcee061f	-0.029055653
38	0xbcf499b8	-0.029858455
39	0x3e9f68d9	0.3113468
40	0xbd76741a	-0.060169317
41	0xbd82b4e1	-0.06382156
42	0xbdc1f5aa	-0.09470685
43	0xbde8710f	-0.11349689
44	0x3d5164a6	0.051121376
45	0x3b970708	0.0046089925
46	0xbd875e23	-0.06609752
47	0xbc97400c	-0.018463157
48	0x3d0e136b	0.034686487
49	0x3c953dd2	0.018217955
50	0x3e048fd2	0.12945488
51	0x3c874b41	0.016515376
52	0xbd9c2807	-0.07624822
53	0x3dac049c	0.08399317
54	0xbd6f69e4	-0.058450595
55	0xbce20dce	-0.027594473
56	0x3cea0602	0.028567318
57	0xbdbb9247	-0.091587596
58	0x3c9ca62d	0.019122208
59	0xbe0bf706	-0.1366845
60	0x3db55b79	0.08855338
61	0x3d8898b4	0.06669751
62	0x3c0e5edb	0.0086896075
63	0xbd949973	-0.072558306
64	0x3cf94dd4	0.03043262
65	0x3e1d240f	0.15345787
66	0xbcc802d0	-0.024415404
67	0x3dd2482d	0.10267673
68	0x3af1ad5f	0.001843851
69	0xbd70ec0f	-0.058818873
70	0x3c0c8616	0.00857689
71	0x3df349e2	0.118793264
72	0xbd06bada	-0.03289304
73	0xbdb40298	-0.08789557
74	0xbe66950a	-0.22517791
75	0xbd3f76fd	-0.046744335
76	0x3d4a2916	0.04935559
77	0xbacac074	-0.0015468732
78	0xbd4e3ff2	-0.05035395
79	0xbd2b14c0	-0.041767836
80	0x3e0e50cd	0.1389801
81	0xbe260903	-0.16214375
82	0xbe213d27	-0.15745984
83	0xbd41e121	-0.04733384
84	0x3d83eb48	0.06441361
85	0xbb9a1ded	-0.0047032745
86	0x3e12d048	0.14337265
87	0x3da30c76	0.07961361
88	0xbe444ba8	-0.19169486
89	0x3b209e71	0.00245085
90	0x3c22a69a	0.009927416
91	0xbda4a348	-0.08038956
92	0xbd893f68	-0.06701547
93	0x3db62aad	0.088948585
94	0xbe01e895	-0.12686379
95	0x3d98e2cc	0.07465133
96	0x3e3cd81a	0.18441811
97	0x3d24c5bc	0.040227637
98	0xbd70d02b	-0.058792274
99	0xbdbeb681	-0.093121536
100	0xbd94926e	-0.07254492
101	0x3d1c4ca9	0.038159046
102	0x3e020aea	0.12699476
103	0xbc986c10	-0.018606216
104	0xbd91d817	-0.07121294
105	0x3d639fa7	0.05557218
106	0x3dac22ff	0.084051125
107	0xbbda5bfa	-0.0066637965
108	0x3d31a564	0.04337062
109	0xbe1dc1ee	-0.1540601
110	0xbe40ec66	-0.18840179
111	0x3e425dd2	0.18981102
112	0xbd58b524	-0.052907124
113	0x3dafee03	0.08590319
114	0xbdd91b2c	-0.10600886
115	0x3d842af5	0.06453506
116	0x3d9a885d	0.075455405
117	0x3d150f24	0.036391392
118	0x3e0d6463	0.13807826
119	0x3de69342	0.11258556
120	0xbc7cc2ea	-0.0154273305
121	0x3e40e2cf	0.1883652
122	0xbc8be708	-0.017077938
123	0x3cab7d36	0.020933729
124	0xbd5d8b65	-0.054088015
125	0xbdb0822c	-0.08618578
126	0xbd43957a	-0.047749974
127	0xbcd73d3b	-0.026274314
128	0xbd759793	-0.059959006
129	0x3d7e5a30	0.06209773
130	0xbd192517	-0.037388887
131	0x3d1021ca	0.035188474
132	0xbe19928b	-0.14997308
133	0xbe26409b	-0.16235583
134	0x3e25d25d	0.16193528
135	0x3e35a148	0.17737305
136	0x3e44c405	0.192154
137	0xbe3f4563	-0.18678813
138	0xbd36e441	-0.044651274
139	0xbcbd6cae	-0.023123112
140	0x3d2e89e7	0.042611983
141	0x3ceb6603	0.028735166
142	0xbdd79237	-0.10525935
143	0x3d0cb4b2	0.034352012
144	0x3a275048	0.0006382507
145	0xbe145bb7	-0.14488111
146	0xbe34f16d	-0.17670222
147	0x3cea13c3	0.028573876
148	0xbe0cc8fe	-0.13748547
149	0xbe4921fd	-0.19641872
150	0x3de33395	0.11093823
151	0x3cebae0a	0.028769512
152	0x3e300ae4	0.17191654
153	0x3d5126a4	0.05106224
154	0xbd9a9acc	-0.075490564
155	0x3de20882	0.11036779
156	0xbe1c76ec	-0.1527974
157	0x3d417ddd	0.047239173
158	0x3e86d389	0.26333264
159	0x3d9ddf37	0.077085905
160	0xbbc8549b	-0.0061136014
161	0xbe25b87b	-0.16183655
162	0xbdf13d74	-0.117792994
163	0xbdcadbde	-0.099052176
164	0x3df41d51	0.11919654
165	0xbdd5e1f6	-0.10443489
166	0xbdfb737f	-0.122778885
167	0x3eb68c3d	0.35653868
168	0xbdea216a	-0.114321545
169	0x3d12bde9	0.035825644
170	0x3d4e706d	0.050400186
171	0xbd675635	-0.056478698
172	0x3ca6c73e	0.020358678
173	0x3e9a2803	0.30108652
174	0x3d8f0946	0.06984191
175	0x3e0b758d	0.13619061
176	0xbdfabf11	-0.12243474
177	0xbd37bdde	-0.044858806
178	0x3e079512	0.1324046
179	0xbd464cac	-0.048412964
180	0xbccaa7d5	-0.024738232
181	0x3d8062dc	0.06268856
182	0x3c1e2fa8	0.009654917
183	0x3e572698	0.21010816
184	0x3cf2e013	0.029647863
185	0xbd0eb983	-0.034844887
186	0xbe162a0a	-0.14664474
187	0xbe480154	-0.19531757
188	0x3e333c5e	0.17503497
189	0x3b5c92d3	0.003365685
190	0x3ceef695	0.029170314
191	0xbdebdc58	-0.115166366
192	0x3d821e65	0.063534535
193	0x3f0005e5	0.50008994
194	0x3dd0aa5d	0.10188744
195	0x3de95daf	0.11394822
196	0xbe5308a5	-0.20608766
197	0xbd9cf432	-0.07663764
198	0xbc3caa90	-0.011515275
199	0x3dc3f3c4	0.09567979
200	0xbda85f29	-0.08221275
201	0xbdab0850	-0.08351195
202	0x3dc3a11b	0.09552213
203	0x3bbd5c05	0.005778792
204	0x3d8a4875	0.06752101
205	0xbd7b86b4	-0.06140776
206	0x3ec75c9c	0.38937843
207	0xbe06a780	-0.13149834
208	0xbdcdc1ed	-0.10046754
209	0xbdc17744	-0.09446576
210	0xbd64aeb9	-0.05583069
211	0xbe8d3adf	-0.27583978
212	0x3d058b57	0.032603588
213	0x3d0890be	0.033341162
214	0x3dc72440	0.09723711
215	0x3e039256	0.12848791
216	0xbec25986	-0.37958926
217	0x3e395f19	0.18102683
218	0xbeb9d47f	-0.36294934
219	0xbdd5125b	-0.10403892
220	0xbba341b1	-0.0049821963
221	0xbdce4c46	-0.10073142
222	0x3cfb1bf0	0.03065297
223	0x3e13fced	0.14451952
224	0x3c00be2e	0.007857842
225	0x3d5042ca	0.050844945
226	0xbe102ab5	-0.14078791
227	0x3e7488a6	0.23880252
228	0xbcf488ce	-0.02985039
229	0xbcb1dfb2	-0.021713112
230	0x3ead00c2	0.3378964
231	0xbd0ed6f6	-0.03487297
232	0xbc0dfe8e	-0.008666648
233	0xbe318b8f	-0.17338394
234	0x3eb0b85b	0.34515652
235	0x3db6856e	0.089121684
236	0xbc97775f	-0.018489538
237	0x3d9e7a1f	0.077381365
238	0x3ddad377	0.10684865
239	0x3ea74e8c	0.32677114
240	0xbd6034c6	-0.05473783
241	0x3db207d8	0.08692902
242	0xbccf39be	-0.025296088
243	0x3e0b4427	0.13600217
244	0x3e131d42	0.1436663
245	0x3db09b25	0.086233415
246	0x3ef84def	0.4849696
247	0x3dd18405	0.10230259
248	0xbd29b2eb	-0.041430395
249	0x3e0eb697	0.1393684
250	0xbdc62d29	-0.09676582
251	0x3da95d8e	0.08269797
252	0xbdb83d06	-0.08996014
253	0x3dbaef3e	0.09127663
254	0xbcdfebf8	-0.027334198
255	0xbceb5726	-0.028728079

bias_ih_l0 f4 [512]
0	0x3ce983de	0.028505262
1	0x3e145722	0.14486364
2	0xbeacebd8	-0.33773685
3	0x3ca0f807	0.019649519
4	0x3d836bbf	0.06417035
5	0xbe00afae	-0.12567016
6	0x3d26370c	0.04057984
7	0xbda4e472	-0.08051385
8	0x3e19f7e2	0.15035966
9	0xbe128519	-0.14308585
10	0xbe2cb776	-0.1686686
11	0xbe114bde	-0.14189097
12	0x3e8256d8	0.25456882
13	0xbe8efcf6	-0.2792737
14	0xbe3f4908	-0.18680203
15	0x3e31ac0e	0.1735079
16	0xbc8a369d	-0.016871745
17	0xbd6fbeb5	-0.05853148
18	0xbe1768a9	-0.14786018
19	0xbebb458d	-0.365765
20	0xbe361312	-0.17780712
21	0xbde906fd	-0.11378286
22	0xbd843507	-0.06455427
23	0xbeab2892	-0.3342939
24	0xbe0aa467	-0.13539277
25	0xbddf02e5	-0.10889224
26	0x3d30534d	0.04304819
27	0x3cf8a6b1	0.030352922
28	0xbd01b33b	-0.031665068
29	0xbd50eda9	-0.0510079
30	0xbe304adf	-0.17216061
31	0x3c6dc524	0.014512334
32	0x3d0597e7	0.03261557
33	0xbe03a806	-0.12857065
34	0xbdcdbc4a	-0.10045679
35	0xbebe8995	-0.37214342
36	0xbdc81be4	-0.09770945
37	0xbe41a40e	-0.18910238
38	0xbe851f9b	-0.26000676
39	0xbe765141	-0.24054433
40	0xbe3f269a	-0.18667069
41	0xbd6179f1	-0.055047933
42	0xbe577854	-0.21041995
43	0x3db6a99e	0.08919071
44	0x3d1fc077	0.03900191
45	0xbe53bd32	-0.20677641
46	0xbe7d7e01	-0.24755098
47	0xbdb015b8	-0.085978925
48	0xbe4499f6	-0.19199356
49	0xbe93735c	-0.2879895
50	0xbe290830	-0.1650703
51	0xbe769f2f	-0.24084161
52	0xbdaba740	-0.0838151
53	0xbd7eab52	-0.062175103
54	0xbe528982	-0.20560268
55	0xbe450064	-0.1923843
56	0xbd482825	-0.04886641
57	0x3c9bb971	0.019009324
58	0xbe475716	-0.19466814
59	0xbd53dccb	-0.051724236
60	0xbe583b4e	-0.21116373
61	0xbca29230	-0.019845098
62	0xbd0e288b	-0.034706634
63	0xbe9d3deb	-0.30711302
64	0xbea7bba9	-0.3276036
65	0xbeae37d6	-0.34026974
66	0xbe9b52bf	-0.30336568
67	0xbe75d4dc	-0.2400698
68	0x3d93e8b3	0.07222118
69	0xbb9ab654	-0.0047214422
70	0x3e544b77	0.20731913
71	0x3da30769	0.07960398
72	0x3e0341a2	0.12818006
73	0x3cb90ff7	0.02259062
74	0xbe3746ca	-0.17898098
75	0x3dccb98c	0.09996328
76	0x3d5627b1	0.052283946
77	0xbcb36bc0	-0.021901965
78	0xbda62e2a	-0.08114274
79	0xbd2ba8e5	-0.041909117
80	0xbefd4b50	-0.4947152
81	0x3d6055af	0.054769214
82	0xbea7ff66	-0.3281204
83	0xbdf560db	-0.11981364
84	0xbe0f46a9	-0.13991798
85	0x3d864af7	0.06557267
86	0x3dd00ab2	0.1015829
87	0x3d952820	0.07283044
88	0xbeb2539d	-0.34829417
89	0xbe264ebc	-0.16240972
90	0x3e863945	0.26215568
91	0xbec3f69b	-0.38274083
92	0xbe9b4477	-0.30325672
93	0xbeace87f	-0.3377113
94	0xbea0e118	-0.31421733
95	0x3ebc5131	0.36780694
96	0xbe85721e	-0.26063627
97	0x3dba77a8	0.09104854
98	0xbe1e08de	-0.1543307
99	0x3e2e0244	0.16993052
100	0xbd7195c5	-0.058980722
101	0x3c309cc6	0.010779565
102	0xbe84a5bc	-0.25907695
103	0xbe5602f4	-0.20899564
104	0xbe81b042	-0.25329787
105	0x3e39d053	0.18145876
106	0xbecc5e57	-0.39915726
107	0x3e712c32	0.23552015
108	0xbe5a10e1	-0.21295501
109	0xbe8db39b	-0.2767609
110	0xbe74a4b7	-0.23890959
111	0xbec63250	-0.3871026
112	0x3d43e07a	0.0478215
113	0xbe51bda9	-0.20482506
114	0xbcaf3a7b	-0.02139019
115	0xbddcca2d	-0.107807495
116	0xbeb7d223	-0.3590251
117	0xbe775988	-0.24155247
118	0xbeacf909	-0.3378375
119	0xbe24e573	-0.16103153
120	0xbe7f727e	-0.24946019
121	0x3adf1d16	0.0017022218
122	0xbc7e953c	-0.01553851
123	0x3dfb49eb	0.12269958
124	0xbd226309	-0.03964523
125	0xbcae4c74	-0.02127669
126	0xbe72dded	-0.2371747
127	0xbeb305c7	-0.34965345
128	0x3c8af02e	0.01696023
129	0x3dc20163	0.09472921
130	0xbe536742	-0.20644858
131	0x3dbccbaa	0.09218533
132	0x3e8b2af9	0.27181223
133	0x3d0eddca	0.034879483
134	0x3e93d5b0	0.28873968
135	0x3e165ba3	0.14683394
136	0x3e2653d7	0.1624292
137	0x3dcab30d	0.098974325
138	0xbe70972d	-0.23495169
139	0xbe450d7d	-0.19243427
140	0x3eb26c2d	0.34848157
141	0x3d5bc51d	0.05365478
142	0xbc9b9b95	-0.018995086
143	0x3e5ce7bb	0.21572773
144	0xbe85127d	-0.25990668
145	0x3bcca7b3	0.0062455772
146	0xbe801edf	-0.25023553
147	0xbdd3912c	-0.10330424
148	0x3dd8b662	0.10581662
149	0x3d013047	0.03154018
150	0x3d543cd0	0.051815808
151	0xbe18a69d	-0.14907308
152	0x3c156ba8	0.0091199055
153	0x3e1e3a13	0.15451841
154	0x3d72c7ac	0.059272453
155	0x3e3bc3d5	0.18336423
156	0x3d2e96ca	0.042624272
157	0x3df80f65	0.12112311
158	0xbc9c7762	-0.019099895
159	0x3e0afcbb	0.13572972
160	0x3df3052e	0.11866222
161	0x3e7c7a3a	0.24656
162	0x3da9df0b	0.08294495
163	0xbe4ac78f	-0.19802688
164	0x3c84929a	0.016183186
165	0xbe0792ea	-0.13239637
166	0xbe1e8fb9	-0.15484513
167	0xbe8cfaa2	-0.27534968
168	0x3e667a9e	0.22507712
169	0x3e3d325c	0.18476242
170	0x3da31e39	0.07964749
171	0x3e25947d	0.16169925
172	0x3e34af0b	0.17644899
173	0x3e007ff8	0.12548816
174	0x3cb0d6ec	0.021586858
175	0xbc0fedcb	-0.008784722
176	0xbadde472	-0.0016929044
177	0x3df05dd8	0.11736649
178	0x3e12e1ce	0.1434395
179	0xbdb1a560	-0.08674121
180	0x3e14982f	0.14511178
181	0x3df04f60	0.117338896
182	0x3e4ba61d	0.19887586
183	0x3d1837e9	0.037162695
184	0x3d850794	0.06495586
185	0x3dec2c4f	0.11531889
186	0x3ce86cb8	0.028372154
187	0x3d7f8eba	0.062391974
188	0x3e72c720	0.23708773
189	0x3e399b2c	0.181256
190	0x3d97534a	0.07388933
191	0x3d98782b	0.07444795
192	0xbdbf83d4	-0.09351316
193	0xbe3bbd70	-0.18333983
194	0xbe20f277	-0.15717493
195	0xbe0f3567	-0.13985215
196	0x3e4a4741	0.19753744
197	0x3e89e151	0.26929715
198	0x3e1ebf10	0.15502572
199	0x3dc4ee87	0.09615808
200	0x3e3cefea	0.18450895
201	0xbe599f9b	-0.21252291
202	0xbcfd344f	-0.030908732
203	0xbb2e5893	-0.0026603087
204	0x3daa7710	0.083234906
205	0x3e713c16	0.23558077
206	0xbdeb7af7	-0.11498063
207	0x3dc3d800	0.09562683
208	0xbe23ca0f	-0.15995048
209	0x3e57c50d	0.21071263
210	0x3c4f77ee	0.012662871
211	0x3e2dccbb	0.1697263
212	0x3d323d7a	0.04351566
213	0x3e0ec5a6	0.13942584
214	0x3ebb08f3	0.36530265
215	0x3e809935	0.25116888
216	0xbe5b4f9a	-0.21417084
217	0xbd509aa0	-0.050928712
218	0x3e03c432	0.12867811
219	0xbe121a20	-0.14267778
220	0xbd84e231	-0.06488455
221	0xbe2eaded	-0.17058535
222	0x3d4f6ecc	0.050642774
223	0xbd6ca20e	-0.057771735
224	0xbdbfd801	-0.09367371
225	0x3dce992d	0.1008781
226	0x3e658f6d	0.22417994
227	0x3de78cf9	0.11306185
228	0x3d8872cb	0.0666252
229	0xbe9cd5c4	-0.3063184
230	0xbe5d9929	-0.21640457
231	0xbd6bf1b3	-0.05760355
232	0x3b1f9479	0.0024349971
233	0x3d9cd0bb	0.07657
234	0xbe5b38d8	-0.21408403
235	0x3e809b25	0.25118366
236	0x3d15ec5c	0.036602363
237	0xbdb60d7e	-0.08889292
238	0x3c615c57	0.013754926
239	0xbe34f3e4	-0.17671162
240	0x3e213ce0	0.15745878
241	0xbdc762ca	-0.097356394
242	0x3d7e9856	0.062156998
243	0x3e62a2a8	0.22132361
244	0xbe33845a	-0.17530957
245	0x3d398ea4	0.04530205
246	0xbe6fdd34	-0.23424226
247	0x3cbbe092	0.022934232
248	0x3e2f7f06	0.171383
249	0x3e72395e	0.23654696
250	0x3d69b57e	0.05705785
251	0x3e825971	0.25458863
252	0x3d835f49	0.064146586
253	0x3da76099	0.081727214
254	0xbaac55c8	-0.0013148123
255	0x3c8b6759	0.017017053
