models/model.pth (torch, 927778 bytes, 18 tensors)

weight_ih_l0 f4 [256, 51]
00000000: 64a6 193f 787d c0be 1fc8 ee3e c0e2 5c3e
00000010: 71ca b6be dd56 0d3f 975d f43d 5992 acbe
00000020: 8005 023f 4846 0ebe bf70 2cbd fa1a a73e
00000030: 9099 e5be cc1c 7cbe 0db8 df3e fb5b 343f
00000040: dcb6 c0be e277 db3e 6f00 12bf f43e cdbe
00000050: f41f b63e 4b6c e73e 8529 c53c 4d26 cf3e
00000060: 3ec0 86bd 99ce cd3e acc9 e53e a51c e73e
00000070: e577 003f 181f 013f 4f91 173f 7831 e93e
00000080: 2bee ac3e 3ab8 993e db11 df3e 2661 a83e
00000090: 1093 dabe ef24 c53e 0873 ba3e 520f e73e
000000a0: 1639 b23e fca8 f93e 9ab0 2d3e f421 073f
000000b0: e8d8 853e 1985 1e3e 63c1 063e f176 9f3e
000000c0: 9f9b 1ebe 2787 b93e d7e5 703e 6520 c3be
000000d0: 7fff c73e f758 e5be 80fd 11bf 0bfa 053f
000000e0: ab24 fabe 7c10 d9be c96f eb3d 51ca 74be
000000f0: 7263 46bf 9535 203f e85e dabe c62e c0be
00000100: 1507 77bd 0247 42be d42f 9ebe 381e 763e
00000110: bb99 d4be 6ae5 86be cee0 cc3e d8e1 9abe
00000120: 3fcc 87be 30ba 193f 6127 57be 1cd0 3fbe
00000130: 1cca f33e 4328 ebbe 361c 25be b0cc 543e
00000140: b0e9 9abe f76c 7f3d 60ba 2d3f cf04 debe
00000150: 55b2 5f3d a89e 9c3c d911 a0be 4720 c53d
00000160: 10b6 c437 517e b9be f156 e2be bce4 47bf
00000170: f402 f2be 7590 b3be 666f 55bf 8795 00bf
00000180: fde9 50be 794c 91be f247 fbbe 2607 393f
00000190: 87a5 12bf b13d 03bf fa6a c0be 07c0 6cbf
000001a0: c9c4 623d aecb 23bf c6dd 0fbf aaa9 673e
000001b0: 71a1 05bf 816a 18bf a02c 433e c95a adbe
000001c0: b1c1 11be 81c6 b13d 318c debe b9e6 20be
000001d0: fab8 4cbd 6416 1cbf 4e1a 923d 2c2d d73d
000001e0: ee7d aa3e 02e4 67bd 9de7 593e 4a17 d7be
000001f0: 3c1b 8dbe 5c9c d73d 9de9 8f3e eba8 33bf
00000200: 014c d83d e01c 3abe e2de f2be 9bdf 403d
00000210: c4ee 45bf 7239 25bf ee90 0a3e ed39 34be
00000220: 10b0 56bc f1f8 5d3d c571 2a3e c25a 153e
00000230: 1f10 fe3d b095 44bd 9d93 bbbe cf3d 8f3e
00000240: e355 113f 7aba 363f c91f ae3e 6ff6 253e
00000250: 57dc 47be fa36 913e 3cdc 66be dc9e 9f3d
00000260: 7610 553e 8677 123d 6f86 53bf b0f7 643f
00000270: 8b95 a2be 3221 99bf 1e58 813f 2d87 1a3e
00000280: 59af 12bf c5b0 483f 17bb 5f3e ac08 efba
00000290: 2371 bebd d3d1 45bf 506f b53d 6587 053e
000002a0: bb15 4d3e c2a1 463e 0fb7 3fbd bbdb 38bf
000002b0: b0d8 023d 403f 993d 6165 d03e caed 013f
000002c0: 4d95 673d 0cf7 03bf 4b73 c53e ee0b f43d
000002d0: 949a 213f 19a2 533f 3215 303d 6045 343e
000002e0: 32b2 2e3e 0e57 7d3d 43a6 623e b5e5 e23e
000002f0: b349 133d 3909 ddbe 6e35 de3e e6c9 a3bc
00000300: 95d3 d1be b2ff dcbb c513 a3be a60a 95bf
00000310: 976f 0dbf 4896 c6be e1ca 6abf 588c b63a
00000320: 0bd9 b8bd bc66 ebbe cc42 65be 9340 3d3c
00000330: b798 93be 777d b93e beef ebbe ef83 22bf
00000340: fcc1 ff3e 76b8 05bf bcc7 01bf 6d35 873e
00000350: ac35 d7be 1c86 c2be d533 923e e127 e6bc
00000360: e4f5 9dbd d3e2 09bd 5e22 8dbc e66c f8bd
00000370: bd6c 643e 81df ebbc 06cc 88b9 99e9 1d3d
00000380: a7a1 30be bbce 9cbc cc47 dd3e 2d30 a9bd
00000390: 3b82 ea3c c183 a23d 43fb 1dbe 0f25 02be
000003a0: 20e1 e1bc bfed 92bd 61bc eabe 56cb 7fbd
000003b0: 99b6 02bf 8a22 5a3e 0ed9 803d d52d 27be
000003c0: b018 0e3e d722 cd3d 1e34 b9bc 240c 02bf
000003d0: 00cd 0abf 819f 68be 94a6 283e 33e8 00bf
000003e0: a94a dabe 27d6 20be 6cd7 debe e6d3 babe
000003f0: b0b7 be3e 7f70 1abf 1ef5 15bf 349b 2f3f
0.60019517 -0.37595725 0.46637055 0.21570873 -0.35701326 0.5521067 0.11931913 -0.33705404
0.5078964 -0.13893998 -0.04209971 0.3263777 -0.4484372 -0.2462036 0.43695107 0.7045285
-0.3763951 0.428649 -0.5703191 -0.40087092 0.35571253 0.45199808 0.02406765 0.4045891
-0.06579636 0.40196684 0.44880426 0.45139042 0.50182945 0.5043807 0.592061 0.45545554
0.33775458 0.30023366 0.4356831 0.32886618 -0.42690325 0.3850474 0.36415887 0.45128876
0.34809178 0.48761737 0.169619 0.52786183 0.2614205 0.1548046 0.13159709 0.31145433
-0.15489052 0.36235926 0.23525177 -0.38110653 0.39062116 -0.44794437 -0.57027435 0.5233466
-0.488561 -0.4239539 0.11495931 -0.23905303 -0.7749549 0.6258176 -0.42650533 -0.37535685
-0.06030949 -0.189724 -0.30895865 0.24034965 -0.41523537 -0.26346904 0.40015262 -0.3025043
-0.26523015 0.60049725 -0.21011116 -0.18731731 0.47615135 -0.45929155 -0.16124043 0.20781207
-0.30256414 0.062359776 0.6786251 -0.43363044 0.05461343 0.019118622 -0.31263617 0.09625297
2.34498e-05 -0.36229184 -0.44206956 -0.78083396 -0.47267878 -0.3507115 -0.83373106 -0.5022816
-0.2040176 -0.28378657 -0.49078327 0.7227653 -0.57283825 -0.5126601 -0.37581617 -0.9248051
0.05536345 -0.63982666 -0.56197774 0.22623315 -0.52199465 -0.5953751 0.19059992 -0.33858326
-0.14234044 0.0868044 -0.43466333 -0.15713014 -0.049981095 -0.60971665 0.071339235 0.10506663
0.33299202 -0.05661393 0.2127976 -0.42009956 -0.2755984 0.1052787 0.2810792 -0.70179623
0.105613716 -0.18175077 -0.4743567 0.047088247 -0.7731745 -0.6454078 0.13531849 -0.17600222
-0.0131035 0.054192487 0.16644962 0.14585403 0.124054186 -0.047994316 -0.36636057 0.27976844
0.5677168 0.7137829 0.34008625 0.16207288 -0.19517647 0.28362256 -0.2254495 0.07793972
0.2080706 0.035758518 -0.82627004 0.8944044 -0.31754717 -1.1963255 1.0105016 0.15090628
-0.5729881 0.7839473 0.21848713 -0.0018236837 -0.09298923 -0.7727329 0.08859122 0.1303993
0.20027821 0.19397643 -0.046805438 -0.7221028 0.03194493 0.07482767 0.40702346 0.5075346
0.05653887 -0.5154884 0.38564524 0.11916338 0.6312649 0.82669216 0.042988963 0.1760459
0.17060164 0.0618506 0.22133736 0.44315878 0.035958957 -0.431711 0.4340014 -0.019993734
-0.40981737 -0.0067443484 -0.3185102 -1.1643875 -0.552484 -0.3878653 -0.9171582 0.0013927324
-0.09025773 -0.45976818 -0.22388762 0.01155104 -0.2882745 0.36228535 -0.46081346 -0.63482565
0.49952686 -0.5223459 -0.50695395 0.26407948 -0.42033136 -0.37992942 0.2855517 -0.028095188
-0.077129155 -0.033663582 -0.017228302 -0.12130146 0.22307105 -0.028793098 -0.0002609195 0.038552854
-0.17249165 -0.019141546 0.4321884 -0.08261142 0.028626552 0.07935286 -0.1542788 -0.12709449
-0.027573168 -0.07174253 -0.45846847 -0.062449776 -0.5105987 0.21302238 0.062914 -0.16326077
0.13876605 0.10016411 -0.02260786 -0.50799775 -0.54219055 -0.22717096 0.16469795 -0.5035431
-0.42635086 -0.15706693 -0.4352373 -0.3648979 0.37249517 -0.60327905 -0.58577144 0.68596196

weight_hh_l0 f4 [256, 64]
00000000: 1813 c7bd 990a d23e 5c98 db3e 0e29 9abe
00000010: fa43 cb3e 8051 02bf e5c2 bcbe f409 043f
00000020: e607 adbe 9009 203f 29fa bc3e 9f0f 2bbd
00000030: 1134 743e c107 19be 136d 6f3e 67ce 4fbe
00000040: a3e4 c9be 869c 003e 0018 a13d 29b8 f53d
00000050: 9b32 7ebd 43ce 42be c4c0 97be c313 403d
00000060: 299d f7bd 6e23 25bf 29bb 77be 943e ba3e
00000070: 76ec ac3d 47af 043e ffdb 763e e125 f5bd
00000080: cda3 03bf 5947 b5be b341 473e 212d 363d
00000090: 8942 fc3e 8c49 a83c 4d8a a13e 0c6a c93e
000000a0: 850f 343d 3e49 b6be ab96 303d e18e cd3d
000000b0: 0dc7 4abd 2f23 963a 4eb7 e6bd 8dea 4ebb
000000c0: e58b 99be ce1b abbe c232 d13d 6778 9fbe
000000d0: 654b 91be b31f 8b3e 0771 e7bc dc17 26be
000000e0: 3f73 c03c 93f9 ea3e 3550 dd3e 2d19 d83a
000000f0: 7db7 ea3d 0bb8 023e c608 bc3d dfee c73d
00000100: 5f91 06bf 88da 353a c5cd 0dbf d3f9 3dbe
00000110: 3b03 14bd 24cd 6bbe f67a 9abe d260 00be
00000120: 5ab8 20bf dba5 cd3e e81d 0b3f 8d0f f4be
00000130: 620a 823d d49b 46bd fbde 4abf 4f2d 32bd
00000140: 7f83 86bc 678c ae3d f3e5 903c 83d9 68be
00000150: 6252 afbd eb12 933d ab80 743d 8521 403e
00000160: 23cd 343e d4c6 d73e 8016 e0bd 2231 91be
00000170: 5ce4 96be f728 193d f230 f9be f535 89be
00000180: 4b9d 62bd c10d c23d 30fa 483d 4fb7 343d
00000190: 6118 f53d 218f 413e 66a0 5bbd a7d8 8e3e
000001a0: 7063 1cbd 401a 4cbd d1a7 4bbd a181 373e
000001b0: 3a7a e9bc 2763 88be 321c fcbc d7c3 563d
000001c0: b6b9 1f3e 6f4b 023e 4963 a7bd 2a5b 37bd
000001d0: a540 54bd e535 2bbe 6a16 69bd 088f 683e
000001e0: 6552 953e dd0f a3be 3a7f 8ebd d307 503d
000001f0: 422f ec3e 834c a83e 8583 5dbd 6d41 813d
00000200: 2f15 313e 1ff1 babe 07f5 0f3e 1a65 1b3e
00000210: 6af6 81be 7073 803e 811a eb3c e382 f4bd
00000220: 0438 f53d 95ba 503e fa74 51be 26cc 0b3e
00000230: bbaf bdbc 7d7b 2c3e c6ea f23e 01ec f53d
00000240: 05dc d8bd 4b44 023e 75cf 463d c382 ffbc
00000250: 0da1 7f3e 43df b23c dc0f 6fbc b59e 83be
00000260: 491a c2bd 4372 963d bfd5 113e 2191 9ebe
00000270: 9d93 2e3d 531f e9bc 3ed0 983d bfeb c53d
00000280: 9816 643e a6df 603e a9aa 8dbc 58b8 e0bd
00000290: d26e 21be 7ad0 6dbd 35c6 4c3c ea13 6bbe
000002a0: a8dd db3d f377 5d3e f1c3 cfbd ae87 613d
000002b0: 6afc 8ebd 6047 5b3e 57ee aa3d 35d8 153e
000002c0: ba33 a5bd 791e 393e d6b0 35be 6fe7 493d
000002d0: b7e7 713e 0196 6abe 922a b83d b347 36bd
000002e0: 1e0d 77be 2fac 8ebe baa1 dbbd 1023 063e
000002f0: cee9 0b3e 5f3b edbe 5c09 29be a235 9abd
00000300: e947 95bd d11e 34bf 577f 9c3e 5532 ca3e
00000310: 9272 ecbd d099 8abe 3520 a8be 9906 173e
00000320: 2745 bfbe 540a 83be 6cd9 813e c065 023c
00000330: 3c2d debd e853 3c3e 5e32 623f a101 a43e
00000340: 067f 363c 2dde a03d 4a01 16be 0aff 433f
00000350: 1da9 85be 9ef0 dd3d 9491 033f 583c c13d
00000360: 2491 54bf 46b8 dabe 4d8f 60bd 6d44 30be
00000370: 9d3e 5f3e 71e6 5cbe d527 30bf 75d4 bbbe
00000380: af4d fa3e 6c2b 0abf 8cdb 97be 3e1c 8bbd
00000390: b018 ef3c 0cb6 0ebe cdf5 0b3f fc5e 323f
000003a0: 7718 b1be 28c6 ecbd 6e96 93be 6d85 f2bd
000003b0: 0943 de3e 836e 5bbf 0169 333e b6d5 f43d
000003c0: 40a7 30be 8ca2 e13d 3bbe da3d ec87 30be
000003d0: 3c60 933d 320c 35be 002c 983e e491 883f
000003e0: c1c5 d0bd 1863 a1be 12c3 7c3e efeb 7cbe
000003f0: 789b 95be 879c 90bf fe24 b9bd ab8b 183e
-0.09720439 0.4102371 0.42889678 -0.30109447 0.397003 -0.5090561 -0.36867443 0.5157769
-0.3379509 0.6251459 0.36909607 -0.041762944 0.23847987 -0.14944364 0.23381452 -0.2029358
-0.39432248 0.12559709 0.07865906 0.119980164 -0.06205998 -0.19023995 -0.29639256 0.046893846
-0.12090523 -0.64507186 -0.2419249 0.36375868 0.08443539 0.12957488 0.2410736 -0.119701155
-0.51421815 -0.35405996 0.19458656 0.044476632 0.49269512 0.020542882 0.31550828 0.3933872
0.043960113 -0.35602754 0.04311244 0.100370176 -0.049506236 0.0011454577 -0.11265431 -0.0031572909
-0.29989544 -0.3341965 0.102147594 -0.31146547 -0.28377834 0.27172622 -0.028252138 -0.16220039
0.023492454 0.45893535 0.43225256 0.0016486995 0.11460779 0.1276552 0.09181361 0.09762358
-0.5256557 0.0006937166 -0.55392104 -0.18552332 -0.036135893 -0.23027474 -0.30171937 -0.12536934
-0.627813 0.401656 0.5434251 -0.47668114 0.063496366 -0.048488453 -0.7924649 -0.04350024
-0.016420124 0.08522873 0.017687773 -0.22739224 -0.08560635 0.07181343 0.05969302 0.18762787
0.17656378 0.4214388 -0.109417915 -0.28357798 -0.294711 0.037392583 -0.48670155 -0.26798978
-0.055325788 0.094752796 0.049066722 0.04412013 0.119675405 0.18902256 -0.053619765 0.27899668
-0.03818077 -0.04982972 -0.04972059 0.17920543 -0.028500665 -0.26638147 -0.030775163 0.05243286
0.15598187 0.12724088 -0.08173234 -0.044764675 -0.051819462 -0.16719778 -0.05690614 0.22710812
0.29164425 -0.3184804 -0.0695786 0.05078871 0.46129805 0.32870874 -0.054080505 0.06311307
0.17293237 -0.36512086 0.14058314 0.15175286 -0.25383312 0.25088072 0.028699161 -0.11939027
0.11973575 0.20383675 -0.2045478 0.13652095 -0.023155084 0.16843982 0.47444743 0.12007905
-0.105888404 0.12721364 0.04853769 -0.031190282 0.2496378 0.021834975 -0.0145911835 -0.2570702
-0.0947767 0.073460124 0.14241694 -0.309701 0.042621244 -0.02845732 0.07461594 0.096641056
0.22274244 0.21960315 -0.017293291 -0.10972661 -0.15764931 -0.058060147 0.012498428 -0.22956815
0.10735637 0.21627788 -0.10144795 0.055061035 -0.06981738 0.21413946 0.08346241 0.14633258
-0.08066507 0.1807803 -0.17743239 0.049292978 0.23623548 -0.22908784 0.08992495 -0.04450197
-0.24126098 -0.2786574 -0.10724206 0.13099313 0.13663408 -0.4633436 -0.16507477 -0.07529761
-0.072891064 -0.7035952 0.30565903 0.39491525 -0.1154529 -0.27070475 -0.32837072 0.1474861
-0.37357447 -0.25593817 0.25361192 0.007958829 -0.108484715 0.18391383 0.88358104 0.32032493
0.011138683 0.07854877 -0.14648929 0.76561034 -0.26105586 0.1083691 0.5139401 0.09435338
-0.83033967 -0.42718714 -0.054824162 -0.17213602 0.21801229 -0.21572281 -0.6881078 -0.3668553
0.48887393 -0.53972507 -0.29659688 -0.06792496 0.029186577 -0.13936633 0.5467194 0.69676185
-0.34588978 -0.11561233 -0.28825706 -0.11841855 0.4341052 -0.857155 0.17520525 0.119548246
-0.17251301 0.110173315 0.10680815 -0.1723935 0.071960896 -0.17680433 0.2972107 1.0669522
-0.101939686 -0.31520915 0.24683788 -0.24699377 -0.29220176 -1.1297768 -0.09040259 0.14897029

bias_ih_l0 f4 [256]
00000000: 1dfa db3e 0cb0 6abe 5a53 233e f24b 6e3d
00000010: bc4a df3b a5a5 f83d 824c be3c 8140 0abd
00000020: bc8f 313e ddf0 dfbc 0c09 8fbc f616 78be
00000030: 9d6e 9bbe 398b 05bd bb15 9a3e afc0 f3bd
00000040: 2286 64be be19 b7bd 30c9 1cbe 8da6 adbd
00000050: 9ba3 46be a232 7abb d42d cf3d 21a6 b7be
00000060: 2ef0 cbbd 9048 87be 13e7 32be b9ef 05be
00000070: 086e 85be aaab 213d c038 80be 8626 3d3e
00000080: f58f 77be d8da d9bd dce9 2f3e d041 093e
00000090: b246 1e3e 600d 34be 1044 4dbe e535 53be
000000a0: 95ef 56bd 27fc 223e 160e 15be 8d70 a8be
000000b0: a1d2 98be c4b2 86be 5a06 673c 0b3c 253e
000000c0: 0b9f 61be 020b 0cbd 400d 2cbe 1450 59be
000000d0: 7b0c b03b 125c aebe b65d 043e dc51 eebd
000000e0: 1a1b 8f3e dd8f abbe 5f1c bdbe 52e0 36be
000000f0: f670 07be db0c 01bd e856 49bd 3c72 ad3e
00000100: 4a19 c03e 4193 043c 37c2 293e 1765 df3c
00000110: 8539 3bbd c79c 49be 6fa1 06be 35b0 11be
00000120: 2f3e ae3e 473b 26be 7008 c2bd 9b06 c13e
00000130: f641 83bd d11e 053e 0ded 633e faad ba3e
00000140: cbc4 33be f98b a6be 62e3 3abe f702 783e
00000150: 9254 a03d aa4d f73d b907 943e c78f 5abe
00000160: 1013 183d e7bb 9a3d 8ff8 b6be 1f60 6bbe
00000170: 9115 91be ab7d db3d 87d5 ca3d 1a55 24bd
00000180: cbab 533e ef48 a2be 7c29 de3e 9f66 d83e
00000190: 0db6 863d 6a60 b0be 4b62 7e3d 1d26 273e
000001a0: 385a 243e 2105 55bd 93f9 dcbd a6e5 a2be
000001b0: 6246 65be 0153 a63d 724b 383e 2cd5 b03e
000001c0: 9540 31be a7af acbe 90c0 e1bd 8756 c8be
000001d0: 4eee 4c3e 4be7 a0be 8f9c 013e be7f 173f
000001e0: 6cf6 d73e b8dd 6dbe 45b9 2fbd df94 b7be
000001f0: 7969 9ebe a5b6 7b3e 2466 db3e df6a c23e
00000200: 6ecf f03d 803a f5bd 1d88 ce3d aded 013d
00000210: 1918 c6be 03dc 103e 26f6 5b3e 3fdd 9abe
00000220: a901 883e ce6d 8bbe 0df6 1c3e b85f 7dbe
00000230: e272 1cbe 11dd 293e 8974 0e3e 51a7 563e
00000240: c490 8d3e 9692 92bd 6944 27be bb90 a73d
00000250: 09af 0bbd 248a 4b3e d739 013e 02a8 b3bd
00000260: 0cba d6bd 5de7 4fbd 8443 8abc 97dc 4dbe
00000270: e037 683e f7e9 c7be 4f52 98bd 5cbd 34bc
00000280: 56e5 153e 2e73 af3d dc8d 9fbe 94f3 58bd
00000290: 13ba 2ebe 43d7 90be 8266 8bbc e762 72bc
000002a0: a4aa c4bd 9b11 1e3e 0b09 19be 18d3 39be
000002b0: bfa4 cf3d f6bb 93bd 2259 df3c 816b 5b3e
000002c0: aec0 cb3d 8e2e 8e3e a0c8 53bd 661c 5b3e
000002d0: 5cf4 503e 2092 adbd 6f29 2c3d 55c6 f73d
000002e0: ef02 bdbe a9d3 83be f625 14be 299b 20be
000002f0: cd08 91be acbc 6bbe 3a4c 54be d857 153e
00000300: 29da 743d 835d 9e3e e5ad a53d fa9d 983e
00000310: b0cb 1abe 85c3 073e 74d7 79be c68c 41be
00000320: b326 bd3d bf7e 27be bed9 9a3d bee7 ebbd
00000330: 411c 15be d22f 90bd 192b 89bc 0e6a 983e
00000340: 3d8c 80be d6c7 75be f4be 28be 173a d8bd
00000350: 43f6 04be 538d 033b db08 2abe 771e 93be
00000360: 07ad abbd ddc5 5cbe 081a 50be 478f fabc
00000370: 1d25 3dbe 1006 b3bc cd25 bebe 98a6 4c3e
00000380: 4737 23bd bf59 3fbd 8834 493d e34a a53d
00000390: 4cd3 42be 4ac0 2dbe 489a 95be ae3a b13e
000003a0: 6de6 8abe c2f2 30be ddc5 8ebe 0ba1 cb3c
000003b0: 777d b83c 05ba 38be 1f0d ac3d 4330 a4bb
000003c0: 1b4b 25be 7cd6 363d 66fb 0dbe 69a3 a8be
000003d0: 6a01 35be 0f6a 483e f94d 633d 6a79 023e
000003e0: aca9 2e3e 66d2 13bd 25e3 8cbe a563 84be
000003f0: 4efc a639 9617 a53e ad7a 23bd 9b49 9e3d
0.4296426 -0.22918719 0.15949765 0.058177896 0.006814329 0.12140969 0.023229841 -0.033752922
0.17339987 -0.027336532 -0.017460369 -0.24227509 -0.3035783 -0.032603476 0.30094704 -0.11901986
-0.22316793 -0.08940457 -0.15311122 -0.08479033 -0.19398348 -0.0038177152 0.10116163 -0.35868934
-0.0995792 -0.26422548 -0.1747096 -0.13079728 -0.2606051 0.039470352 -0.25043297 0.18471727
-0.24176009 -0.10637444 0.17179054 0.13404012 0.15456656 -0.17583227 -0.20045495 -0.20626028
-0.052474577 0.15916501 -0.14556155 -0.3289837 -0.29848197 -0.26308262 0.014100635 0.16136186
-0.22033326 -0.034190185 -0.1680193 -0.21221954 0.0053725815 -0.3405462 0.12926373 -0.11636707
0.27950364 -0.33508196 -0.36935708 -0.17859009 -0.13226685 -0.0315064 -0.049155146 0.33876216
0.37519294 0.008091749 0.16577993 0.027269883 -0.04570915 -0.19688712 -0.1314752 -0.14227374
0.34031817 -0.1623355 -0.094742656 0.37700352 -0.064090654 0.13000037 0.22258396 0.3646086
-0.1755554 -0.32528666 -0.18250802 0.24219881 0.078286305 0.1207536 0.28912142 -0.21343909
0.037127554 0.07555371 -0.3573651 -0.22985886 -0.28336766 0.10717329 0.09904008 -0.04012022
0.20671003 -0.3169627 0.43391025 0.42265794 0.06577692 -0.34448558 0.06210546 0.16323133
0.1605004 -0.052006844 -0.1078979 -0.31815833 -0.2239013 0.081213005 0.1799753 0.34537637
-0.17309792 -0.33727762 -0.110230565 -0.39128515 0.20012781 -0.31426463 0.12657379 0.59179294
0.42180192 -0.2322911 -0.042901296 -0.35855767 -0.30939844 0.24581392 0.42851365 0.3797216
0.11758314 -0.119740486 0.10084555 0.031720806 -0.3869026 0.14146428 0.21480617 -0.30246922
0.26563767 -0.27232212 0.15328236 -0.24743545 -0.152782 0.16588236 0.13911642 0.20962264
0.2764951 -0.07156865 -0.1633469 0.08181902 -0.034102473 0.19876915 0.1261972 -0.08772279
-0.104847044 -0.050757755 -0.016877897 -0.2010368 0.22677565 -0.3904569 -0.07437574 -0.011031475
0.14638266 0.08566891 -0.31162918 -0.05296667 -0.17063169 -0.28289232 -0.017016653 -0.014794088
-0.096028596 0.15436403 -0.14944856 -0.18146932 0.10138845 -0.07213585 0.027264182 0.21427728
0.0994886 0.27769893 -0.051705003 0.21397552 0.20405716 -0.08475137 0.0420317 0.12098376
-0.369163 -0.2574742 -0.14467606 -0.15684189 -0.28327027 -0.23021191 -0.20732203 0.14584291
0.059778366 0.3093072 0.080898084 0.29808027 -0.15116763 0.13258179 -0.24398595 -0.18901357
0.09235897 -0.16356944 0.07561062 -0.11518811 -0.1456156 -0.07040371 -0.016744183 0.29768413
-0.25106993 -0.24002013 -0.16479093 -0.10557955 -0.12984566 0.002007325 -0.1660494 -0.2873418
-0.08382612 -0.21559854 -0.2032243 -0.030585898 -0.18471189 -0.021853477 -0.37138215 0.19985425
-0.03984764 -0.046716448 0.049122363 0.08070924 -0.19025916 -0.16967884 -0.2921927 0.34615082
-0.27128926 -0.17280105 -0.27885333 0.024857065 0.022520764 -0.18039711 0.0840094 -0.005010636
-0.16141932 0.044638142 -0.13865432 -0.32937172 -0.1767632 0.19571708 0.055494282 0.12741628
0.17056912 -0.036089323 -0.27517048 -0.25857273 0.0003184997 0.32244557 -0.039911915 0.07728883

bias_hh_l0 f4 [256]
00000000: 5847 ca3e 7a10 8ebe 37f9 213e 4b44 863d
00000010: 94ef 30bc abbe 4a3e 0196 4ebc b438 9fbc
00000020: a750 d63d 6edb 2abe ef7c 9cbb 7632 93be
00000030: c67a f4bd 37ff 9c3b aec3 9b3e d4e5 06bd
00000040: 7168 b1be 0aea 9fbe 1708 7ebd 1343 13be
00000050: c0e1 2bbe 0cc2 4e3e c429 b8bd 1ee3 c0be
00000060: 3a35 52be 4d8b 11be 2cf1 d3be 4dd2 34be
00000070: b70d d5be 84e2 693d 84fa 53be b993 bb3e
00000080: bb0f a0be 54a2 97bd de32 6b3e b215 c63d
00000090: 7688 febc 5e2f d3be 0916 81be f284 15bd
000000a0: 0da1 cabd 15af b23d 7d5f 6abe 7dbd b7be
000000b0: d143 b5be c62d a8be c3f8 6abd 45d1 87bc
000000c0: dc88 94be a310 16be 5c6f 14be 415e a1be
000000d0: 1be8 dcbd 5315 62be ee8c 313d bb9c 14be
000000e0: d8b7 a53e f023 1fbe 0533 3cbe 2475 6abe
000000f0: b9c7 d0bd cba2 123d 1d4a 8abd f14c 563e
00000100: c07d d83e 78f8 59bd 984b 2f3e 2da9 ab3d
00000110: 4120 c0bd 75c3 43be 97f8 88bc 3b1f 07be
00000120: 4ddf da3e bf89 66be 64ea 97be c1c4 903e
00000130: 28f2 00bd c7c5 bb3d 67ee b63e f531 643e
00000140: f0de bebe bd68 83be d0cc 44be 46d5 8e3e
00000150: 10ea 453d a67d 2b3e 4766 ae3e 7197 6fbe
00000160: f405 013d 7f16 38bd 757f 81be 8efa 8bbe
00000170: 92f8 84be faa0 f0bd 1fd5 b33d 3e37 4abc
00000180: cf0e 593d 61f0 9ebe bbeb dd3e 922c 933e
00000190: 28cb 773e d906 86be fb67 8e3e 73ac 983e
000001a0: aa28 193e 8759 80bd 3bd2 98be e29b 69be
000001b0: b2d5 afbe 8eae 3b3e 63ee ef3c d588 9b3e
000001c0: 6b6f d7bd 020a acbe 7268 91be 6115 33be
000001d0: 2e87 573e ac3b dfbd c490 213e 0e88 0d3f
000001e0: 53ab 653e 5f35 3fbe 7b86 91be 28cf 35be
000001f0: 0c4e 85be 728a cf3e 6972 993e 0364 7e3e
00000200: cfca eebd de5a a1be cd9f 023d 7601 4c3e
00000210: 0fe6 a9be 392a a83d 4034 853e 8358 ecbd
00000220: 7ddb 473d e3e7 8ebe b8c8 43bd 82a7 50be
00000230: 183b 52be f355 513e 4575 de3d d553 d63d
00000240: 80ba 373e 037b 8abb 8ff2 b1bd d1b4 2a3e
00000250: 3bd7 18be 49f6 753e 7a3c 8a3e 1dc0 dfbc
00000260: b8b8 dfbc 43f5 d33d 0006 63bd 9a66 c2be
00000270: 5115 233e 0576 cabe f56a 89bd 6152 3e3b
00000280: 3989 223e 967d 893e 33c1 acbe a2ad 32be
00000290: 226e 81be 83bd 86be 1f6d d53d dfec 4cbd
000002a0: d1e0 b13b 86ec 513e b13d 6cbe 8af7 77be
000002b0: 8dcc 0d3e 9d3e e83c 9629 083d 34fb 263e
000002c0: f125 f3bb 9627 513e e468 773b cc1c 8a3e
000002d0: 012b b43d 4ad4 4bbe a717 3c3e de74 343d
000002e0: 393e a0be 3cd7 80be 68f9 b0bd 7cc7 59be
000002f0: 927d bbbd 7b7a 33be f6ec a0be 2416 fb3d
00000300: 18e1 553e 63ec 8d3e 4a05 d0bd 1100 3f3e
00000310: c2d4 d3bb d635 9a3d fd0e 72be 333b 41be
00000320: cd5d 243e 8b00 1cbe cfd1 f1bd 249c efbb
00000330: 8d85 20be ad80 133e fd13 71bd 0e9a 8a3e
00000340: b0d2 50be 6e08 babe d4fc 95be 2cb8 efbd
00000350: b8d8 49be 646d 2abe 1ae0 d7bd 182a a3be
00000360: 8361 ebbd 0b71 a6be b632 8cbe 9e84 0e3e
00000370: db36 1dbe 12fe 01be 3f06 77be 7874 8f3e
00000380: 8581 5ebd 8d21 3f3c c679 e8bd 9df8 413e
00000390: b6c9 b3be 15ba cebe 4b37 47be 5f01 ae3e
000003a0: 79ce 6cbe fead 16be fb9c ddbd 49fb 21be
000003b0: a303 973d dca6 0ebe 7b4f 853c b694 1cbd
000003c0: 8970 30be edd8 97bb 1289 acbe 41d7 6cbe
000003d0: 0b5e 4ebd ca2f de3d d551 99bd ef21 3cbd
000003e0: 40b5 873e 0822 78bd 455e 57be b80a c2be
000003f0: fb97 42bb 2a62 583e c93c 79bc 80a9 843d
0.39507556 -0.27746946 0.15817724 0.065559946 -0.010799307 0.19799297 -0.012609006 -0.019436218
0.10464602 -0.16685268 -0.0047756354 -0.28749436 -0.1193748 0.004791166 0.3042273 -0.032934025
-0.34649995 -0.31233245 -0.062019434 -0.14381056 -0.16785336 0.2019121 -0.08992341 -0.37673277
-0.20528117 -0.14213295 -0.41394937 -0.17658348 -0.41612026 0.057100788 -0.20701033 0.3663614
-0.31262 -0.074040085 0.22968623 0.09672107 -0.031070929 -0.41247076 -0.25212124 -0.03650374
-0.09893999 0.087248005 -0.22887988 -0.35886756 -0.35403302 -0.32847422 -0.057366144 -0.01657928
-0.29010665 -0.14654784 -0.14495605 -0.31517223 -0.10786458 -0.22078447 0.04334729 -0.14512913
0.32366824 -0.15541053 -0.18378837 -0.22896248 -0.10194344 0.035799783 -0.06752417 0.20927788
0.4228344 -0.053215474 0.1711868 0.08381877 -0.09381152 -0.1911753 -0.0167201 -0.13195507
0.4274849 -0.22513483 -0.29671013 0.2827511 -0.03148094 0.091685824 0.35728762 0.22284682
-0.37279463 -0.25665846 -0.19218755 0.2789709 0.048318923 0.1674715 0.34062406 -0.23397614
0.031499818 -0.04494333 -0.25292554 -0.27339596 -0.25970894 -0.11749454 0.08780884 -0.012342272
0.05299264 -0.3104277 0.4334391 0.28744942 0.24198592 -0.261771 0.27813706 0.29819068
0.14956918 -0.06267076 -0.29847893 -0.22813371 -0.34342724 0.18328306 0.029288476 0.30377832
-0.10519298 -0.33601385 -0.28399998 -0.17488624 0.2104766 -0.109000534 0.1577788 0.5528573
0.22428636 -0.18672703 -0.28422913 -0.17754805 -0.26036108 0.40535313 0.299701 0.24842839
-0.116597764 -0.3151464 0.03189068 0.19922432 -0.33183333 0.08211178 0.26016426 -0.1154032
0.048793305 -0.2791129 -0.047798842 -0.20376399 -0.20530355 0.20442943 0.10862211 0.104652084
0.17942238 -0.00422609 -0.086888425 0.16670538 -0.14925854 0.24019732 0.26999265 -0.027313286
-0.02730976 0.10349514 -0.055425644 -0.37968904 0.159261 -0.39543167 -0.067098536 0.00290408
0.15872659 0.26853627 -0.3374115 -0.17449048 -0.25279337 -0.2631646 0.10421204 -0.050030585
0.0054284115 0.20500383 -0.23070408 -0.24215522 0.13847561 0.028350169 0.033242784 0.16306764
-0.0074202945 0.20425257 0.0037751729 0.26975095 0.08797265 -0.199052 0.18368398 0.044056766
-0.31297472 -0.2516421 -0.086413205 -0.21267503 -0.0915481 -0.17527191 -0.31430787 0.12260082
0.20886648 0.2771941 -0.10157259 0.18652369 -0.0064645717 0.075298 -0.2363853 -0.18870239
0.16051407 -0.15234582 -0.11807596 -0.0073123146 -0.15675946 0.14404555 -0.058856953 0.2707066
-0.20392871 -0.36334556 -0.29294455 -0.1170505 -0.19711578 -0.16643292 -0.10540791 -0.31868052
-0.11493208 -0.3250812 -0.2738244 0.13917777 -0.15352957 -0.12694576 -0.24123476 0.28018546
-0.05432274 0.011665714 -0.113513514 0.18942495 -0.3511483 -0.40376344 -0.19454686 0.3398542
-0.23125638 -0.1471481 -0.10820957 -0.15818514 0.073737405 -0.1393084 0.01627325 -0.03822776
-0.17230429 -0.004634014 -0.33698326 -0.23128988 -0.050382655 0.10848959 -0.07486311 -0.0459308
0.2650547 -0.06057933 -0.21032055 -0.37898803 -0.0029692638 0.21131197 -0.015212246 0.06477642

weight_ih_l0 f4 [512, 64]
00000000: 4d8a 81be 7eb4 413d 86c7 9dbe ba2b 90be
00000010: 972c c63d 9b21 d1be 7fa0 97be 1e12 0e3e
00000020: 3c08 a8be 5a8c 01be 4be3 4d3e 027d a5be
00000030: 0495 76be af7e 7cbe ee0c f9be 4801 85be
00000040: 2b02 fe3d 2c9d ea3d 2be3 93be 8ef9 923e
00000050: aa20 74be 96e4 30be 0366 d83d 2fae 913e
00000060: 3dd5 15be 2bad 13be 2a85 78be a21c a4bd
00000070: e5ea 403e b7cc 6d3d 3dcd 4ebe b11b b2be
00000080: d12e aebd 053f a4bd 3057 2b3e 7b02 583e
00000090: 185d 1bbe 89d3 adbd 56ee 273e d1e8 c43e
000000a0: f8f2 99be 88fe 93bd 593f 6ebe 3f4f b5bd
000000b0: a677 783e 82db 4fbe 4f96 9ebe 66f1 95be
000000c0: a8f6 7f3d f37c 21be e9e7 9d3d 11e1 bebd
000000d0: 57ad 98be e355 13be dbb0 42be f19d 15be
000000e0: 2588 bc3e 9efa d83d 1031 13bc e15e 3ebe
000000f0: 7223 12be 794b a13e a282 253e 730e a33e
00000100: bec2 bfbd 83a9 42bd 934b edba f695 f13d
00000110: 250c 22be 5a93 3ebe ccb9 103e 321e 7bbe
00000120: 57ff 86be 7e78 0b3e 866a 62be b446 a93d
00000130: 88f0 013e 71a1 653e d9c4 79bd 0d26 9e3e
00000140: 01e1 433e 2eff 003d 9d06 f53d afac 93bd
00000150: 462a 323e 0450 8d3e 2d3c 32be b530 883d
00000160: 9aa3 493e 75d4 913d be4c 22be 5c21 22bd
00000170: 8366 2fbd 1822 5bbe 1bf1 4b3d 7add 193e
00000180: de00 6f3e 2c65 023e 0939 25be 69df 7bbe
00000190: cfc3 95bd 1a85 a5bd 19c2 d5be 43e9 3abd
000001a0: 1b24 4e3e f155 813e ecdc 853e 5897 1d3e
000001b0: 284b f2bd 3f3e 0a3d ff1d a13e 9675 893e
000001c0: b1f7 753e ca58 883e 26e7 333d 07bf 863d
000001d0: c043 853e c815 4fbe 1380 5f3e 01dc 123f
000001e0: 2007 72be 78b0 1abe 30ff afbd fe04 a23d
000001f0: 3d8c a03e d360 363e 0df0 aabe ae87 e73d
00000200: 2317 de3d 57ca 293e 0ee1 a6be 1aaa 02be
00000210: 411b bd3d e738 233c c3d4 c8be 36b0 3e3e
00000220: 7653 c03c 2da5 54be c8fb c8bb e120 473d
00000230: d342 8ebe c308 aebe 4ae5 debe 0b4d 84be
00000240: 8086 1f3e b8e5 223e 1015 50be d172 2a3e
00000250: 4ab1 6d3e 3287 6bbe 39ea 623e 3004 a23e
00000260: ba8d 8fbe a04e 9dbe 8606 03bd eb2d bb3e
00000270: 42ec 403e d718 a13e a1b2 b8be 3bcc b4be
00000280: 7e88 b9be 3ea7 613c e69f 8b3e 668b 7f3e
00000290: 6e35 05be c126 2cbe a185 05bf cea5 3ebe
000002a0: 33ac afbe bc1b 1dbe 40fb a1be 8dcf 8aba
000002b0: 0ecb cd3d f677 853d 0e18 a3be 5400 34be
000002c0: 5667 c1be d3d7 71be 68b5 f43d c02d 9bbd
000002d0: 552e 64be cf13 aa3e 8b5b bebe 4212 babe
000002e0: c6a4 9c3e f6ac 933e 9c69 83bc 77a9 3fbe
000002f0: 69db 8d3d 9a3f 4dba 3198 7d3e c26b 6cbd
00000300: 12c6 113d 03ef 1b3e 4c32 63be dc0c 8ebd
00000310: 908f d13d 7abf 3b3e a718 bebe 489e 623e
00000320: 7aab 073e e12d 483e 2ac9 833d f22c 923d
00000330: 972c 9fbe 99fa 48be a221 cdbe d53b 6ebe
00000340: f49f b23c 3424 2d3e 0c50 16be e948 da3d
00000350: 3499 443d 8769 9ebe bafa 0a3e 697d 643e
00000360: 781e d2bd c705 3bbe a2a4 02be c4ef 963e
00000370: 7919 2f3e 715a 7f3e 3184 f6be 5f97 0cbe
00000380: dd66 6bbe 682b b6bd 2dc7 9c3e 9a1f 273e
00000390: 9b18 833c 2b62 59be c24b 16be 818d 82be
000003a0: 7d65 85be 346a 85bd 37ca f0be 97f3 673e
000003b0: 6dae 243d 0bf3 b23d 7eac 57be dd4a 9fbe
000003c0: 4c06 afbe 6ff7 9cbe 4981 753c 3c23 863d
000003d0: 2d8d 6dbe b328 513e cbe9 abbe 71f1 4abe
000003e0: 1273 8d3e 22cb c13e 3af3 2abe 5120 36be
000003f0: 8419 f73d fde1 0f3c ae6f 933e 91e9 5abd
-0.25300828 0.04729127 -0.30816287 -0.2815836 0.096764736 -0.4084595 -0.29614636 0.13874099
-0.32818782 -0.12651196 0.20106237 -0.32321936 -0.24080282 -0.24657701 -0.48642677 -0.2597754
0.12402757 0.114557594 -0.28884253 0.2870602 -0.23840585 -0.17274699 0.10566332 0.28453204
-0.14632125 -0.14421527 -0.24269548 -0.08013274 0.18839605 0.05805656 -0.2019548 -0.34786752
-0.08505023 -0.080198325 0.16732478 0.21094696 -0.15172231 -0.08487613 0.16399512 0.38458875
-0.30068183 -0.07226282 -0.23266353 -0.088530056 0.24264392 -0.2029858 -0.3097405 -0.29285735
0.06249109 -0.1577032 0.07710249 -0.09320272 -0.29819748 -0.14388232 -0.19012778 -0.14611031
0.3682262 0.105946764 -0.008983865 -0.18590881 -0.14271334 0.31502894 0.16163114 0.3184696
-0.09363316 -0.04752494 -0.0018104188 0.11796181 -0.15824945 -0.18610898 0.14133376 -0.24523237
-0.26366684 0.13620183 -0.22110948 0.08265439 0.12689412 0.22424866 -0.060978744 0.30888405
0.19128801 0.03149336 0.11964152 -0.07210671 0.17398939 0.2760011 -0.17405768 0.06649915
0.19691315 0.07120601 -0.15849587 -0.039582595 -0.042822372 -0.21399724 0.049790483 0.15025893
0.23340175 0.12733907 -0.16135038 -0.24596943 -0.07312738 -0.08082028 -0.41749647 -0.045632612
0.2013096 0.2526088 0.26145113 0.15389764 -0.11830741 0.03375077 0.31468198 0.26847523
0.24020268 0.2663024 0.043921612 0.06579404 0.26028252 -0.20223153 0.218262 0.5736695
-0.2363553 -0.1510638 -0.08593595 0.079111084 0.31356993 0.17810373 -0.3338627 0.11305176
0.10844257 0.16581093 -0.32593578 -0.12760201 0.09233714 0.009962297 -0.39224824 0.18621907
0.023477297 -0.20766135 -0.0061335303 0.04861534 -0.27785358 -0.3399106 -0.4353431 -0.2584003
0.15578651 0.15907943 -0.20320535 0.16645361 0.23212162 -0.23000792 0.22159661 0.3164382
-0.28037816 -0.3072405 -0.031988643 0.3655847 0.18840125 0.31464264 -0.36073783 -0.35312065
-0.36236948 0.013772784 0.2727043 0.2495552 -0.13008663 -0.16811658 -0.52157027 -0.18617937
-0.34311065 -0.15342611 -0.31637 -0.0010590419 0.10048495 0.06517021 -0.3185429 -0.1757825
-0.37774152 -0.23617487 0.11948663 -0.075770855 -0.222833 0.33218238 -0.37179217 -0.36342055
0.30594462 0.28842896 -0.01604157 -0.1871699 0.06926615 -0.0007829607 0.24765088 -0.057719953
0.035589285 0.15227894 -0.22187155 -0.069360465 0.102324605 0.18334761 -0.37128183 0.22130692
0.13249007 0.19548751 0.064348534 0.07137479 -0.31088707 -0.19626845 -0.40064722 -0.23265012
0.021804787 0.16908342 -0.14678973 0.10658438 0.04799767 -0.30939886 0.13572207 0.22313465
-0.10259718 -0.18263923 -0.12758115 0.29479802 0.17099561 0.24936844 -0.4814773 -0.13729618
-0.22988458 -0.08894998 0.3062071 0.16320649 0.016002944 -0.21228854 -0.14677337 -0.25498584
-0.26053992 -0.06514397 -0.47029278 0.22651516 0.040205408 0.08737763 -0.21061894 -0.31111804
-0.34184492 -0.30657527 0.014984437 0.06549689 -0.23198386 0.20425682 -0.33576807 -0.19818665
0.27626854 0.3785029 -0.16694346 -0.17785765 0.120654136 0.008781907 0.28796142 -0.053445403

weight_hh_l0 f4 [512, 128]
00000000: b2f4 923e d171 2b3e 2760 25be 1aa5 43be
00000010: b295 073e 3dc2 31bd 0072 8cbe 18cb 223d
00000020: 88b7 3c3d 15a8 c03d 19ce 7ebe 75e9 43be
00000030: 6c0d 57be a606 893e b935 c0be 96c2 6a3e
00000040: 8754 7ebd 9f6a 5bbd 63c3 4cbe ab01 abbd
00000050: eb10 a4bd e3e4 cfbe 04ae 413e 4c1d db3d
00000060: 1100 1f3e 6326 083f df39 84be 5c67 84be
00000070: 4096 0abe 136e 4ebe 1107 623e 7e77 5e3e
00000080: e4e5 bfbd cf8b 84be 06fa 7bbe f5c2 2ebe
00000090: bda3 073e 8559 03be 3454 103e 4003 3e3e
000000a0: 3419 82bd 3447 aebe 8d9f ed3d 5d78 0ebe
000000b0: 1888 52be d68f 69be ae2f 4ebe d1a1 7f3e
000000c0: 02df 86bd 0a05 9e3d 9ff8 3fbe 9847 93bd
000000d0: 1df9 513e 4b6e b53e 1972 913c 652f 5cbe
000000e0: fc0b 5cbe a376 56be 850b 40be 2050 96be
000000f0: 129e fdbd 1f2e 81be 3ace 59be 4327 41be
00000100: 26a5 a43e 8cb1 a5bd 593d f8bd 2ba8 3f3e
00000110: f498 033e 2aae b6bc 53b0 343e 38c2 643e
00000120: 56d2 423e fbdb 70be 4764 2bbe f4e9 50be
00000130: c383 54be 9867 1e3e 4a52 2a3e 1328 c6bd
00000140: 63dc ccbd 0414 523e 4996 b83d cb18 1e3e
00000150: 9829 b03d bdea f23e e665 41be 430a c63d
00000160: 5c20 193e 5ee9 8c3e ef8d 1a3e 7e7c 5c3e
00000170: 2bd1 18be 6b8e 033e 57de 1d3e ff0f 143e
00000180: 66fa edbd 6ed8 03be 3dc8 c93d 0ffe 0b3e
00000190: 23c9 36be 265f 0a3e 4e39 8cbe 8cd4 47be
000001a0: d347 a7be 1117 2ebe 50a7 88be dc4a 30be
000001b0: 3f15 6fbe f6eb 683e a6ea fc3d 853a 6c3e
000001c0: 3ee5 143e 2083 7bbd bcb5 3e3e ceb8 ddbe
000001d0: 2fa3 17be 68de 60be 51a9 393e 3130 38be
000001e0: 7730 873e e9bf cc3d f05f 8e3e 5118 203e
000001f0: 862d 9bbe fa66 01bd e88d 75be 9f67 f43d
00000200: 482e 273d 43a3 78bd cb47 923c 4656 223e
00000210: 1916 4dbe 6129 bfbe 174f b1bd 0e0c 59be
00000220: 631e 11be f3de 94bb 38e7 17bd e9dd 9c3d
00000230: 9b88 1b3e 38c3 d63d bcb2 9b3f c0c5 c33d
00000240: b95f 5b3e efb6 1b3f 257d a53f 43b4 b63e
00000250: b46c 053f 86eb b5bf 7ddc 9dbd 8dd5 71bf
00000260: 0f66 c83d 40ad 603f f72c 1e3d 0e6c 64bd
00000270: b935 383d 8a3e 593e 12ea f33d a4a7 f0bc
00000280: edfa 2d3e 0140 c6be 0a4d 793d c166 d3bc
00000290: 254b 903f 444f c33d e631 21be 1b6d c9be
000002a0: 3210 343f fd73 b3be 1c82 8fbe f965 383d
000002b0: 8fa8 7b3c d79b e5be 147f 603e 33e1 bebe
000002c0: 9307 28bf 4685 bd3d 07e8 593e 2248 0b3e
000002d0: 531f 26bf 7b43 e13f 71a0 793f 0f35 10bd
000002e0: 3f50 efbd 0e24 06bd 9511 b3be d296 463f
000002f0: 06aa 5bbf a2a0 2dbd 7dad 9d3b 7366 913d
00000300: 2b86 74bd 9106 443f f7c4 913e f082 41be
00000310: 9466 debe 2c24 893e 4ed3 30be afee 82be
00000320: b655 e7bd 7062 663d 8352 623e f7a8 6cbd
00000330: ff6c c63d 67dc 5cbe e78f 3abc ae3a 0abe
00000340: 5cd5 e23d 668e a83e b3ce 1cbd f62f 91be
00000350: 168b d5be 79a2 533f ebee 853e 20d2 8d3f
00000360: fb29 903c 95d4 213f 6559 a6be 76fe 19be
00000370: 1482 c53e 4146 dabd 23f7 0ebe 19f3 c93d
00000380: 0b91 1a3e 89d0 e03e 675f 86be 0614 bf3f
00000390: b24a ee3d 7195 08bd d859 13be 0cbf 113e
000003a0: 954b d23a 1322 b23e c815 d0bd f6a2 1bbe
000003b0: 8819 c63e a00f fbbd 3ed3 f5be 536d 30bd
000003c0: b659 46be fa54 013f 1033 c1bc c591 69bf
000003d0: 1f0e 75bd f50d eabe c963 313d 0dc9 18bd
000003e0: 6289 f4be f248 95bd 71b6 f93d cd6c 68bd
000003f0: 97df 2dbe 52be 8d3f fe00 1bbd c77a ad3d
0.28702313 0.16742636 -0.1614996 -0.1910595 0.13240698 -0.04339813 -0.27430725 0.039744467
0.046073467 0.09407059 -0.24883308 -0.19132026 -0.21001214 0.26762885 -0.37540987 0.22925791
-0.06209233 -0.05356848 -0.19996409 -0.083499275 -0.08011039 -0.40604314 0.18914038 0.10698947
0.15527369 0.53183573 -0.25825402 -0.25860107 -0.13533878 -0.20159177 0.22073008 0.2172527
-0.0937002 -0.25887915 -0.24607095 -0.17066558 0.13246055 -0.12827118 0.14094621 0.18555927
-0.06352463 -0.340387 0.116026975 -0.13913102 -0.20559728 -0.22808775 -0.20135376 0.24964072
-0.06585504 0.07715805 -0.18747185 -0.0719139 0.20505185 0.3543571 0.017754601 -0.21502455
-0.21488947 -0.20943694 -0.18754394 -0.29358006 -0.12383665 -0.252305 -0.21270075 -0.18862633
0.32157248 -0.08090505 -0.12121076 0.18716495 0.12851316 -0.022299845 0.17645387 0.22339714
0.1902555 -0.23521416 -0.16737472 -0.20401746 -0.20753388 0.15469205 0.16632953 -0.09675612
-0.10002973 0.20515448 0.090130396 0.15439145 0.086016834 0.47444716 -0.18886527 0.09669926
0.1495375 0.27521795 0.15093206 0.21531865 -0.14923541 0.12847297 0.15416847 0.14459227
-0.11620025 -0.1287553 0.098526455 0.13671134 -0.17850165 0.13512859 -0.2738747 -0.19514674
-0.32671985 -0.17000987 -0.2669015 -0.17216057 -0.23347948 0.22746262 0.12349443 0.23069198
0.14540574 -0.061404347 0.18624014 -0.43305057 -0.14808343 -0.21959841 0.18130995 -0.17987134
0.26404163 0.099975415 0.2780757 0.15634276 -0.3030817 -0.031592347 -0.23979914 0.11933827
0.04081562 -0.060702574 0.0178565 0.15853223 -0.20027961 -0.37336257 -0.08657663 -0.21196005
-0.14171748 -0.004543179 -0.03708574 0.076595135 0.1518883 0.10486454 1.216392 0.09559202
0.21423234 0.6082601 1.2928816 0.35684404 0.5211899 -1.4212501 -0.077080704 -0.9446648
0.09785091 0.8776436 0.0386171 -0.05576711 0.04497311 0.21215263 0.1190988 -0.029376812
0.16990252 -0.38720706 0.060864486 -0.025805833 1.1272932 0.09536603 -0.15741691 -0.39341053
0.7033721 -0.3504943 -0.28028953 0.045019124 0.015360012 -0.4484546 0.21923476 -0.37281188
-0.6563656 0.092539355 0.21279918 0.13601735 -0.64891547 1.7598718 0.9751044 -0.03520685
-0.116852276 -0.03274923 -0.34974352 0.77573884 -0.8580631 -0.04238952 0.004811941 0.07099619
-0.059698265 0.7657252 0.28470585 -0.18897605 -0.43437636 0.2678541 -0.17268106 -0.25572726
-0.11295645 0.05624622 0.22101788 -0.057778325 0.09688758 -0.21568452 -0.011386848 -0.13498947
0.11075851 0.3292114 -0.03828306 -0.28356904 -0.41707677 0.8266979 0.26158842 1.107975
0.017598143 0.63215 -0.32490078 -0.15038475 0.38575804 -0.10657931 -0.13961463 0.0986082
0.15094392 0.439091 -0.2624466 1.4927986 0.11635341 -0.033345643 -0.14389741 0.14233035
0.0016044254 0.34791622 -0.101604044 -0.15198883 0.38691354 -0.122588396 -0.48012727 -0.04307301
-0.1937016 0.5052029 -0.023583919 -0.9123805 -0.05982792 -0.45713773 0.043308053 -0.037301112
-0.47761065 -0.07289304 0.12193001 -0.056744386 -0.16979824 1.1073706 -0.037842743 0.084706835

bias_ih_l0 f4 [512]
00000000: 7de7 9fbe 5c2b 993e 76dc 50be 2892 53be
00000010: d8b5 0f3e 5392 63bd e34e 9d3d 932c 9c3c
00000020: 1662 233e d4bd d8be ec26 c8be 8a2a 8b3e
00000030: 34ef f4bd 25be ddbc b035 813e 75af dfbd
00000040: 5452 c93e e3c1 553e b767 50be 30f2 9dbe
00000050: 8594 3bbe 8a2e c2be ddcf 0c3f f4aa bebe
00000060: 3282 c1be cf39 a73d e4c7 4ebd 5e06 21be
00000070: 8d31 a43d a958 9bbd b268 153e 86a5 3ebe
00000080: 248e 6f3e 3c0d a33d 79e2 743e 073f b5bd
00000090: 168d d03e 00f8 70be d447 c43e bcd9 ea3c
000000a0: 8da0 95be f4f1 173e 309d 373e b8bb 113e
000000b0: 5537 f3be fdfc 83bb fcc8 99be 9e98 1a3c
000000c0: f1d8 0fbe 4951 6d3e 4a98 0dbe 208a 2b3e
000000d0: b33e eabd 1413 bdbd 103a 87bd 18c7 03be
000000e0: 16cb c93c 7b9e ebbd 418c 4ebe 79c7 913d
000000f0: cfc8 98bd f808 6c3e dcc6 003f 393f aabe
00000100: a366 703e 62bf b83c 8c9e 82bd d808 b83e
00000110: 8070 893d 183c 403d d3b5 89be 8271 31be
00000120: d968 b43e e099 a0be 07be 3f3e 67fb 993e
00000130: 846a d63c 0dd5 663e 4f88 1bbc 9393 72be
00000140: 3480 7b3e 0239 8e3e de55 a53d fb31 9d3c
00000150: 1c09 07bd 369f f03c 7600 74be 9a6a 113d
00000160: a01e 80be 730f a1bd 787f 62be 15d9 e23d
00000170: 1775 5dbc ba1a 233e 0ff0 b93e 40a9 0a3e
00000180: 5739 4a3e e045 aebd f41d 943e 2e59 5dbe
00000190: ad5d 643e 12bf 403e 0175 c93d 0d30 353e
000001a0: ce37 e73b b69c a4bd 16b8 71be 9515 69be
000001b0: a104 08be 6762 34be e895 3bbe dcf0 57be
000001c0: 9ea7 83bd 3efa a8be 8e2f e73d 5663 d1bd
000001d0: 4558 1fbe 9e89 81be 1650 47be d43c 25be
000001e0: 604c b33e eaf7 973e d66f 06be 489b 943e
000001f0: a49f 8a3e c6d5 3ebe 699d eb3c 5b19 7ebe
00000200: 32a1 8cbe 6e49 3b3e 91f6 f9bd 5630 133c
00000210: 4b5b 3b3c 77f8 0cbe f3fb 43be 1ed6 633d
00000220: ae3f 803e ee1c 5cbe 8398 45be 3b05 913e
00000230: 1682 11bd c397 c5bd d489 fd3d 0e5a 323e
00000240: 5be7 963d 5b18 863e 592e 653e 2b6b a4be
00000250: d400 dd3d 9a10 1e3e 2ec0 7e3e e413 02bd
00000260: ec30 aabe e791 bf3d 8524 96bc cd44 60bd
00000270: 8af6 8c3d a33b 1ebd 5ad3 f93d ec48 bfbd
00000280: 76e6 b73e baa1 203e a425 493d fbae 6a3d
00000290: 7194 aebe fec5 0fbd 954c 983e dd0c 0ebe
000002a0: c4c8 353e 2447 6d3e 74cd 673e ca88 0abd
000002b0: 2b7c 88bd 0fc0 2b3e 29de 79be 2d3b 3c3c
000002c0: 5858 203d ee69 9d3e 8a7e e8bd ca90 9d3e
000002d0: d003 d63d 1805 8abc b8d4 33be 818d 92be
000002e0: cfb8 023f 35c4 8dbd 9f1a 763d 9745 0e3c
000002f0: b5f0 6e3e 163a 073d e471 80bc cfb6 4bbe
00000300: f097 b33d 2daa 22be 7c65 05bd 3a0c 8a3e
00000310: e31d 2a3c fe9b 7d3e 92ca 86be fb3b 14be
00000320: e8d7 9e3e aeaf 06be 2193 983e 565d 9c3b
00000330: 169b 5fbc 1adc 88bd 3a38 7a3b d99a 22be
00000340: b14c 5d3e 84e1 f43e fb41 9d3e df37 9a3e
00000350: 31b1 bd3d 4fb0 7e3e 1e07 d1be 9ba6 aabd
00000360: 7138 8fbd 6a92 9a3d 835a b7be 59de 503e
00000370: f3fb 2abe ab17 b73d b646 b23e ef52 983e
00000380: 00e1 163e ab97 503d ce61 803e b992 ae3d
00000390: 0e2f 3e3e 922a 9a3e 41fa da3c 1904 8f3e
000003a0: e5cd 233e 08cb de3d 951c 9139 7d5c 54be
000003b0: b153 2c3e 8109 79be 0764 76bd 3a11 88be
000003c0: 0276 b13d fd56 3b3e 0fb5 c03e fccf 60be
000003d0: 3975 563e dfee 04be 4584 93be 0976 46be
000003e0: 224e 053d 9b75 973e 8e0b ac3d dd5a 523e
000003f0: be15 823e 9995 583d a6cb a0bc 4246 02be
-0.312313 0.29915893 -0.20396599 -0.20661223 0.14034212 -0.055559468 0.07681062 0.019064223
0.15955386 -0.42332327 -0.39092195 0.27180892 -0.11959687 -0.027068207 0.25236273 -0.10922138
0.39320624 0.20874743 -0.20352064 -0.30848837 -0.18318374 -0.3792613 0.55004674 -0.37239802
-0.37794644 0.08165323 -0.0504836 -0.15725085 0.080172636 -0.0758527 0.1459072 -0.1861783
0.23394066 0.07961509 0.23914517 -0.08849912 0.4073264 -0.23532104 0.3833605 0.028668277
-0.29224053 0.14838392 0.17931056 0.14231765 -0.47503152 -0.0040279613 -0.3003615 0.009435801
-0.140476 0.23175539 -0.13827625 0.1675191 -0.1143774 -0.092321545 -0.066028714 -0.12868917
0.024632972 -0.11504837 -0.2017069 0.071181245 -0.07460176 0.23050296 0.50303435 -0.3325136
0.23476653 0.022552196 -0.06377897 0.35944247 0.06710911 0.04693231 -0.26896533 -0.17328456
0.35236242 -0.31367397 0.18724833 0.30074617 0.026173837 0.2254221 -0.009492948 -0.23689108
0.24560624 0.27777869 0.080730185 0.019188872 -0.03296767 0.029372793 -0.23828301 0.035502054
-0.25023365 -0.07864275 -0.22118938 0.11076561 -0.013516686 0.15928164 0.36315963 0.13541126
0.19748436 -0.08509421 0.28929102 -0.2161605 0.2230136 0.18822888 0.0983677 0.17694111
0.007056213 -0.08037703 -0.2360538 -0.22762139 -0.13283016 -0.17615663 -0.18318903 -0.21087974
-0.06428455 -0.3300342 0.11288367 -0.10224025 -0.15561016 -0.25300306 -0.19464144 -0.16136485
0.35019207 0.2968133 -0.131286 0.2902472 0.2707492 -0.18636236 0.028761582 -0.2481436
-0.27466732 0.1828973 -0.12205232 0.008983692 0.01143534 -0.13766657 -0.1913908 0.05562412
0.25048584 -0.21495411 -0.1929646 0.28324303 -0.03552445 -0.09648087 0.12379804 0.17417166
0.07368346 0.26190457 0.22380961 -0.32113013 0.107911736 0.1543602 0.24877998 -0.03175725
-0.3324045 0.093540005 -0.01832796 -0.054753114 0.06882961 -0.038631093 0.12198515 -0.093400806
0.35918015 0.15686694 0.049108163 0.05729578 -0.34097627 -0.03510093 0.29745927 -0.13872094
0.17752367 0.23171669 0.22636968 -0.03382186 -0.06664308 0.16772483 -0.24401154 0.011488718
0.03914675 0.3074488 -0.113522604 0.30774528 0.10449946 -0.016848132 -0.17561615 -0.28623584
0.51063246 -0.06922189 0.06008398 0.008683584 0.2333401 0.03301438 -0.015679307 -0.19893955
0.08769214 -0.1588523 -0.032567486 0.26962453 0.010383102 0.24766538 -0.26326424 -0.14476006
0.31024098 -0.13152954 0.2979975 0.0047718687 -0.013647815 -0.06682606 0.0038180486 -0.15879382
0.21611287 0.47828305 0.30714402 0.3012075 0.09262312 0.24871944 -0.40825742 -0.08332559
-0.06993187 0.075474575 -0.35811242 0.20397319 -0.16697673 0.08940061 0.34819573 0.29750773
0.14734268 0.05092589 0.2507462 0.08524079 0.18572637 0.30110604 0.026730658 0.27932814
0.15996511 0.10878569 0.0002767785 -0.20738406 0.168288 -0.24320032 -0.060153987 -0.26575643
0.08665086 0.18294902 0.37638137 -0.2195434 0.20943154 -0.12981747 -0.2881185 -0.19380964
0.032545216 0.29581913 0.084006414 0.20542474 0.25407213 0.052877042 -0.019628357 -0.12722114

bias_hh_l0 f4 [512]
00000000: c4d3 c6be 74b2 843e c6d1 4bbe 77a0 92be
00000010: 7faf 633e 7792 8fbd a12c 9f3d 5fd9 e83c
00000020: c0e4 173e 7aaa cabe 3493 92be 2c76 c33e
00000030: b959 85bd 28b9 17be e216 243e cee5 efbd
00000040: ea67 903e 81bd 963e 0eaa 2dbe 26c7 a7be
00000050: 21d3 1bbe 1442 bdbe 2105 ee3e 9eab 8dbe
00000060: e367 8fbe b443 65bd e514 3abd 8ffc ffbd
00000070: f949 30bd ddea b5bd c46d 353e b026 16be
00000080: 718b 483e 422a 323e 3396 713e 4cf0 c7bd
00000090: 27e0 ae3e 1dcf 6bbe e43e bc3e b4e1 85bd
000000a0: d41e 22be 10ad 4c3e 93d5 eb3d a3e9 bd3d
000000b0: c15c bfbe 65cb ee3d c42f 90be 5123 18bd
000000c0: dc45 acbd 464c 993e 431d 60be a069 983e
000000d0: f57c aebd de27 b4bd fb5f 98bd 218c 61be
000000e0: b305 b53d 952d d6bd 36f5 65be 479e 823d
000000f0: 2576 97bd 2211 393e 9bcc e73e ac2a bdbe
00000100: b023 c43d b2c5 8abd 5cd7 813c 2e58 9b3e
00000110: 4047 1b3e 759a 913d d6ac f4bd a3a4 27be
00000120: 40e1 bf3e 34a5 8bbe cb25 103e 96c0 c43e
00000130: 5505 9f3d 6e5d ef3d 04dd 1abb e267 79be
00000140: 9c25 793e cb97 8d3e 7025 633e 3b0e b3bd
00000150: 2a92 0a3c 5bbe c13d 4597 51be 810e 85bd
00000160: 8e36 7ebe b102 8bbd 16f7 93be 5b96 373e
00000170: b22a 013d c404 563e 9ea8 943e b474 263e
00000180: 256e 4f3e 91dc 54bd 5d10 733e 49f9 febd
00000190: 203d 653e 87e6 363e e59c 2abd c3c7 483e
000001a0: 56f5 0e3e 7ab3 03be f8cb a8be 0f75 48be
000001b0: 0869 69bc 7d55 0dbe a42f 2fbe a4f3 2cbe
000001c0: 86b7 e5ba a2ba 24be 5fb3 833d adab 19be
000001d0: d97d cabd 643f 4dbe b0ad 33be 0d13 2bbe
000001e0: 9056 a03e 97ed 5f3e b091 fcbd af0f 2d3e
000001f0: 6c35 103e bffb 86bd 05af 7fbd 2db5 b6be
00000200: dcd3 24be 19f4 523e 73b8 593c 1a79 3d3c
00000210: 6d51 fe3b 1620 0dbe 09ed 4cbe 0389 f0bc
00000220: c1f0 7f3e bac6 62be 4e36 53be 8e44 213e
00000230: d8ca 9a3c ab13 dfbc ef01 303e 6f4d 053e
00000240: 4c3b 683d f1e9 b63e cc0b 543e 5d67 a5be
00000250: 62c4 ee3c 3eb0 173e e7da 5d3e 360c 10be
00000260: fe6f 84be 1cbc 793e fb3c c0bb aba4 b0bd
00000270: e2ba af3d d5a7 adbd 6423 5a3e cff5 47bc
00000280: 2cf1 b63e c233 b63d cab7 a93d b43c 723d
00000290: bd40 4ebe 8f1f 073d 390f a63e 276f da3b
000002a0: 5848 803d 3f43 973e 57cc 813e 7466 8cbd
000002b0: 1060 2dbe f4bf 833e aa15 96be f8e4 523d
000002c0: 5768 033e 4f4f cb3e 2884 d7bb d693 c73e
000002d0: ac7f 093d 2a5d 8b3c 8db4 8bbe 2259 23be
000002e0: bb0e fc3e 2170 b7bd eb1a 2e3d 0d6d 65bd
000002f0: d402 5e3e 5575 a6bd dc7e 113c 952e 92be
00000300: af71 853c f9db b9bd 6671 e6bd c7c8 8d3e
00000310: 9f30 343c 840f 1b3e c2de 8bbe 05ed 86bd
00000320: ae05 953e 57b2 cdbb 4a48 983e c72f 3c3d
00000330: 8546 033d a0df 13bd 7bf7 963d 1297 13be
00000340: dc30 b83d 9190 fe3e a34f 693e 816b 833e
00000350: d2ff 9ebb df33 933e 9ff7 e0be ae7e 8fbd
00000360: 57dd 96bd 0cf7 f03d 22df 92be 8fb7 b73d
00000370: 136d 03bb db8a d63d 3ee9 a73e e6fa a13e
00000380: 32c4 2d3e dbfb 8ebd 7c99 9d3e b1b2 d43d
00000390: 855f 5e3e f45b 303e b587 2a3e f042 613e
000003a0: 62d7 d53c ea3d 083e 0d85 a2bd cb28 8bbe
000003b0: 6532 f43c 58e1 fcbd 903c 253d 9bcb 8abe
000003c0: 1485 c43d 58df 873d 84bf 983e 4be0 80be
000003d0: 985c 1f3e 1288 e8bd 2577 89be 050b 0bbe
000003e0: be00 a9bd 005e 833e cdef 4a3d 779a 9d3e
000003f0: 18c0 ca3d 4a36 583e 5f91 113d 0281 5bbe
-0.3883344 0.259174 -0.19904241 -0.2863805 0.22234915 -0.07010358 0.07772184 0.028423963
0.14833355 -0.39583188 -0.28627932 0.38176095 -0.06511254 -0.14816725 0.16024354 -0.11713754
0.2820428 0.29441455 -0.16959402 -0.32769126 -0.15217258 -0.36964476 0.46488288 -0.27669996
-0.28008947 -0.05597277 -0.045430083 -0.124993436 -0.043039296 -0.08882687 0.17717654 -0.14663196
0.19584443 0.17398933 0.23592453 -0.0976263 0.3415539 -0.23028226 0.36766732 -0.0653719
-0.15832072 0.19987893 0.115153454 0.09273078 -0.37375453 0.11659888 -0.28161442 -0.037143055
-0.08411762 0.29941005 -0.21886162 0.29768085 -0.085199274 -0.087966666 -0.07440182 -0.22026111
0.08838978 -0.10457913 -0.22456822 0.06377845 -0.07395581 0.18072942 0.4527329 -0.3694662
0.09577119 -0.06775989 0.015849762 0.30340713 0.15163898 0.071095385 -0.11947028 -0.16371398
0.3747654 -0.27274477 0.14076917 0.3842818 0.07764689 0.11687742 -0.002363027 -0.24356034
0.24330753 0.2765487 0.2218225 -0.087429486 0.0084577 0.094601355 -0.20467861 -0.06496907
-0.24825498 -0.06787623 -0.2889945 0.1792845 0.031534858 0.20900255 0.29034895 0.16255456
0.2025686 -0.05196816 0.23736711 -0.12449891 0.22386599 0.17861377 -0.041653533 0.19607453
0.13960776 -0.12861434 -0.32968116 -0.19575904 -0.014246233 -0.13802142 -0.17108017 -0.16889817
-0.0017526008 -0.1608682 0.06430697 -0.15006895 -0.09887285 -0.20043713 -0.17546725 -0.16706486
0.31316042 0.21867977 -0.12332475 0.16900514 0.14082879 -0.065909855 -0.06242277 -0.356851
-0.16096443 0.20600928 0.013288605 0.011564517 0.0077611716 -0.13781771 -0.20012297 -0.029362207
0.24994184 -0.2214612 -0.20626184 0.15748808 0.018895552 -0.027231058 0.17188238 0.1301782
0.056697175 0.35725358 0.20707625 -0.32305422 0.029146377 0.14813325 0.21665536 -0.14067158
-0.25866693 0.24388164 -0.0058666444 -0.08625158 0.08580567 -0.08479277 0.21302563 -0.012204601
0.35730875 0.08896591 0.08287008 0.059139922 -0.20141883 0.03298908 0.3243349 0.0066660824
0.062637985 0.29543492 0.2535121 -0.06855479 -0.16931176 0.25732386 -0.29313403 0.051487893
0.12832771 0.39708945 -0.0065770335 0.38979977 0.033569023 0.017012198 -0.27286187 -0.1595197
0.49229988 -0.08956934 0.04250614 -0.056012202 0.21680766 -0.08127848 0.008880343 -0.28551164
0.01628956 -0.090751596 -0.11252098 0.27692243 0.01099792 0.15142637 -0.27318388 -0.06588177
0.29105896 -0.0062773633 0.29742652 0.045944 0.032049675 -0.036101937 0.07371422 -0.14413098
0.08993694 0.4971967 0.22784285 0.25667956 -0.0048522735 0.28750512 -0.4393892 -0.07006584
-0.07366436 0.117658705 -0.28685862 0.08970558 -0.0020054027 0.10475703 0.32795137 0.31636733
0.16969374 -0.06981631 0.30781162 0.10385645 0.21716125 0.17222577 0.1665333 0.21998191
0.02610368 0.13304868 -0.07935534 -0.2717956 0.029809186 -0.123476684 0.04034096 -0.27108464
0.09595695 0.06634396 0.29833615 -0.25171122 0.15562665 -0.11354078 -0.26848713 -0.13578422
-0.08252095 0.25657654 0.049545098 0.3078191 0.0989992 0.2111446 0.035539027 -0.21435931
